model/0525_dog_0.41.1_3.pth (torch, 136741 bytes, 93 tensors)

init_conv.weight f4 [16, 2, 3, 3]
-0.20818841 -0.005293589 -0.06620882 0.13725667 -0.21650335 0.050448477 0.109753534 0.14014125
0.06546339 0.067975156 -0.09144336 -0.090545595 0.3164452 0.19126146 -0.092744485 0.048909184
-0.2860196 -0.1555425 0.22226033 0.0075281328 0.14526702 -0.20882788 -0.17791691 -0.22225928
-0.2027495 0.047825996 0.20065199 0.1724699 -0.16020742 -0.093046546 0.09672376 0.050327085
0.08016729 -0.15772264 0.16199805 -0.23170573 -0.10841564 -0.09215673 0.052780088 -0.02839491
0.064895265 -0.027624482 -0.13711327 -0.24709554 -0.23288035 0.105491444 -0.063675046 -0.107692815
-0.21481618 -0.0028196222 0.232677 -0.16778746 0.14702997 0.0047774203 0.14790702 0.015053665
-0.043089405 -0.19608751 -0.12771778 -0.30288082 0.032492444 0.19438402 0.08671918 0.005849827
-0.19263068 -0.19949743 -0.021483384 -0.29362744 0.097574845 0.17640516 0.18572901 0.15483816
-0.20005882 0.16196601 0.11465818 0.075530924 0.19345395 0.30987012 -0.046298537 -0.33467788
0.040270183 -0.103099 -0.11178077 0.20190783 0.15442412 0.054803915 -0.15459281 0.11269985
-0.05234359 -0.24146393 0.027005538 -0.021539532 0.10222229 -0.10237419 -0.28981125 -0.02578721
0.07635954 0.025873683 0.3380201 -0.21118464 -0.09791422 -0.017862586 0.08258236 0.022824932
0.12832494 0.0030648776 0.20537436 0.20842075 0.2179724 0.12715389 0.072941385 0.1401847
-0.08297074 0.05360222 -0.020055914 -0.3125604 -0.2437053 -0.078133985 -0.18788208 -0.18195176
0.25445217 0.20621848 0.13847207 0.0048023537 -0.11064674 0.0042562056 -0.17929326 -0.21546514
-0.049208857 0.13838957 0.13487253 -0.062638335 0.049941994 0.22967997 0.07254241 -0.041865826
0.09624878 -0.10023248 -0.2125439 -0.029474989 0.108520314 -0.0666464 0.2460211 0.16316205
-0.17781422 0.098681636 -0.2082891 -0.066209435 -0.101970196 0.25209033 -0.12509684 -0.15245022
0.3461822 -0.13443106 0.11262008 -0.029676037 -0.069446824 0.07065934 0.2482837 -0.20877618
-0.19046065 0.18980516 0.005719952 -0.15556012 0.28103918 -0.28199962 -0.027817419 0.05282196
-0.025351789 0.118936546 0.04980757 0.21355118 -0.02032901 -0.10492977 -0.2078498 0.21194589
0.256542 0.045363184 0.014569281 -0.28548148 -0.07918087 -0.09091364 -0.19324896 -0.12561387
0.2181176 0.1345838 -0.20355724 0.26454765 -0.13276309 -0.3309889 0.14946489 -0.07206117
0.14296596 0.28562784 0.008859525 -0.10855479 0.18278447 -0.04515566 0.20022316 0.1081317
-0.01924144 -0.28922033 -0.15204255 -0.084182546 0.18145907 0.14146502 -0.05477989 -0.14494093
-0.04986099 0.031376317 -0.054962095 -0.27101293 0.03995413 0.3042997 -0.1768678 0.12072878
-0.16267927 0.122831844 -0.024338959 0.29683495 -0.1019649 -0.19229983 -0.069098346 0.15310448
-0.024432197 -0.12790877 -0.060269568 -0.021988904 -0.19511752 -0.007556632 -0.06855097 0.08398165
-0.04103454 -0.2124611 -0.07291986 -0.16443306 -0.018451659 -0.05885528 -0.13112555 -0.028048828
0.012696045 -0.15206942 -0.0061163926 0.033669412 0.15771402 -0.12819809 0.19017127 0.051970657
0.0011647391 0.23317511 -0.27753347 -0.21322191 0.1527734 -0.20285825 -0.11731047 0.24060287
00000000: 582f 55be d875 adbb 7d98 87bd 038d 0c3e
00000010: 0eb3 5dbe 10a3 4e3d 76c6 e03d 3081 0f3e
00000020: ab11 863d 8f36 8b3d a846 bbbd f86f b9bd
00000030: 1b05 a23e 0bda 433e d2f0 bdbd ff54 483d
00000040: 2971 92be 8846 1fbe 3698 633e 8eae f63b
00000050: e1c0 143e fad6 55be da2f 36be f097 63be
00000060: 919d 4fbe 31e5 433d b777 4d3e f39b 303e
00000070: 6a0d 24be 308f bebd 1b17 c63d c623 4e3d
00000080: c02e a43d 0b82 21be d1e2 253e 4444 6dbe
00000090: 0509 debd abbc bcbd ef2f 583d 719c e8bc
000000a0: cfe7 843d bd4c e2bc 6c67 0cbe 9d06 7dbe
000000b0: 3078 6ebe e60b d83d 1068 82bd 0d8e dcbd
000000c0: c6f8 5bbe 69c9 38bb e142 6e3e 7ad0 2bbe
000000d0: 068f 163e e88b 9c3b f074 173e a6a3 763c
000000e0: 847e 30bd 2acb 48be 73c8 02be 3213 9bbe
000000f0: cc16 053d 9b0c 473e d399 b13d e8af bf3b
00000100: fa40 45be 0e49 4cbe ecfd afbc 5656 96be
00000110: 52d5 c73d 8ea3 343e bf2f 3e3e e58d 1e3e
00000120: 38dc 4cbe 6bda 253e e8d1 ea3d f5af 9a3d
00000130: cb18 463e 4ca7 9e3e 89a3 3dbd e65a abbe
00000140: 59f2 243d 9225 d3bd 51ed e4bd edc0 4e3e
00000150: 5b21 1e3e 127a 603d 944d 1ebe 2ecf e63d
00000160: 3b66 56bd 5242 77be b83a dd3c ac73 b0bc
00000170: ec59 d13d 8fa9 d1bd 2462 94be b33f d3bc
00000180: 6462 9c3d 0cf5 d33c f810 ad3e c940 58be
00000190: 4087 c8bd 8f54 92bc f120 a93d 5afb ba3c
000001a0: 9d67 033e 1ddc 483b a84d 523e 406c 553e
000001b0: 2834 5f3e a134 023e 4b62 953d 948c 0f3e
000001c0: 90ec a9bd 008e 5b3d 4d4c a4bc eb07 a0be
000001d0: e28d 79be b604 a0bd 2964 40be 9051 3abe
000001e0: 8e47 823e f02a 533e 9fcb 0d3e 105d 9d3b
000001f0: c29a e2bd a477 8b3b a798 37be e5a2 5cbe
00000200: 3a8f 49bd ffb5 0d3e 061c 0a3e 8748 80bd
00000210: fa8f 4c3d 3a31 6b3e 1d91 943d 807b 2bbd
00000220: 151e c53d b046 cdbd 1ca5 59be 8875 f1bc
00000230: e63f de3d e87d 88bd f5ec 7b3e f413 273e
00000240: ee14 36be 9919 ca3d bd49 55be d098 87bd
00000250: c0d5 d0bd fc11 813e 6319 00be e91b 1cbe
00000260: cb3e b13e 4ca8 09be 5ba5 e63d 291b f3bc
00000270: 233a 8ebd d8b5 903d 153e 7e3e 6cc9 55be
00000280: 1e08 43be 495c 423e 6f6e bb3b 274b 1fbe
00000290: 5ee4 8f3e 4162 90be 5be1 e3bc d75b 583d
000002a0: 8eae cfbc 0195 f33d 0603 4c3d 29ad 5a3e
000002b0: 0689 a6bc 6be5 d6bd 94d6 54be 5808 593e
000002c0: 7959 833e bfce 393d feb3 6e3c a12a 92be
000002d0: 9429 a2bd ee30 babd 0ee3 45be eca0 00be
000002e0: 385a 5f3e 56d0 093e 4f71 50be ca72 873e
000002f0: 0cf3 07be 6177 a9be 530d 193e cf94 93bd
00000300: ab65 123e d03d 923e 8b27 113c f951 debd
00000310: da2b 3b3e 24f5 38bd 4d07 4d3e 2774 dd3d
00000320: 39a0 9dbc b014 94be 0bb1 1bbe e667 acbd
00000330: 68d0 393e 35dc 103e e160 60bd 656b 14be
00000340: 0a3b 4cbd 7484 003d ef1f 61bd 35c2 8abe
00000350: f1a6 233d 2ccd 9b3e d51c 35be a740 f73d
00000360: 6595 26be 438f fb3d 7f62 c7bc c0fa 973e
00000370: f9d2 d0bd 3fea 44be 6f83 8dbd 6cc7 1c3e
00000380: 0826 c8bc 84fa 02be 39dd 76bd 1322 b4bc
00000390: e3cc 47be a09d f7bb 7364 8cbd 92fe ab3d
000003a0: d513 28bd 678f 59be 0257 95bd 2461 28be
000003b0: ef27 97bc 3c12 71bd c745 06be a8c6 e5bc
000003c0: 1303 503c 16b8 1bbe 056c c8bb f0e8 093d
000003d0: c97f 213e 5c46 03be 42bc 423e 2fdf 543d
000003e0: 29aa 983a 75c5 6e3e de18 8ebe d856 5abe
000003f0: a170 1c3e 13ba 4fbe 7940 f0bd 9960 763e

enc1.bottleneck.0.weight f4 [16, 16, 1, 1]
0.020104267 -0.14973068 -0.14618938 0.051623505 -0.059497815 0.26899594 0.26022735 0.34694204
0.38041723 0.09465908 0.055720612 -0.14613728 -0.07265088 -0.005494901 0.2720325 0.265834
0.056636248 -0.08117501 -0.13689147 -0.08182321 0.006979615 0.09690318 -0.08614245 -0.29736537
-0.13699448 0.102540076 -0.14157407 0.28989136 -0.085387744 -0.07107246 -0.10179198 -0.37736067
-0.32331043 0.1410183 -0.15634339 0.07843326 0.17129683 -0.2935478 -0.27392873 0.18492812
-0.30892354 0.33038807 0.036878463 -0.1834649 -0.0032602253 0.13961005 0.19130808 -0.09627187
-0.03944689 -0.13570169 0.12628326 -0.18258046 0.009317214 -0.15283763 -0.1393294 -0.09553857
0.19461039 0.2431002 -0.22680683 0.072652906 -0.23887572 -0.11021533 0.011301016 0.2808749
0.121370666 0.09819118 0.21719973 -0.09279126 -0.11054089 0.2803583 0.30501685 -0.054505102
0.110928945 0.19370778 0.059602104 -0.13576649 0.025577324 -0.085358344 0.030929483 -0.0077843633
-0.09012469 0.117262855 0.010861353 0.17462304 -0.08688536 -0.17636222 0.08491794 0.09745195
-0.24525341 0.19130693 0.33567262 -0.20980127 0.08587323 -0.11245311 -0.047145426 0.032384053
-0.03905566 -0.05330482 0.2711858 -0.028906265 0.22627403 -0.13755187 -0.03719129 -0.057700608
0.13642861 -0.19872 0.10858565 -0.23281004 0.21023484 -0.18282929 0.29833713 -0.017112238
0.08083736 0.08498184 -0.20217869 0.18862447 0.19484918 -0.13772166 -0.28132087 -0.0984566
0.25676772 0.1425783 0.2415984 0.21465893 -0.09799166 0.0038177662 -0.20805964 -0.41097388
-0.103199854 0.06739634 -0.1005301 0.021515204 0.20502722 0.012004015 0.036128413 -0.21739678
0.49965352 0.11023908 -0.2775669 -0.024320466 -0.11496404 0.13018195 -0.33263814 -0.07628884
-0.0165941 0.013840551 0.02650212 0.0086886715 0.2770501 -0.2044361 0.1855855 0.006944266
-0.115057334 -0.07263202 0.16176006 -0.039079677 -0.11320495 -0.10828066 -0.021139178 -0.40666866
-0.3304465 -0.09677687 -0.10286941 0.09713668 -0.03615479 -0.112667546 -0.2889387 -0.046422645
-0.1526426 0.041769907 0.1454744 -0.17121994 0.11933604 -0.11515162 -0.15219678 -0.1895669
-0.01872376 -0.22380298 -0.026545957 -0.02310472 -0.109041244 0.24811554 0.27128285 0.2624504
0.19938159 0.105334885 0.019709045 -0.08504353 -0.041722685 0.02235279 -0.10825837 0.06289068
-0.13591325 0.21057093 -0.055286974 -0.2665184 -0.0433018 0.094874695 0.2730861 -0.15397777
-0.03384909 0.32977152 0.13500747 -0.25765714 -0.04271634 -0.09342413 0.052263886 -0.03477619
0.015178034 -0.13476174 0.1702028 -0.06662171 -0.030800533 0.033896226 0.12665415 -0.28033566
0.07532893 -0.08105746 -0.18761139 0.05132539 0.11411968 0.20717543 -0.018446974 -0.08764427
0.371891 0.030875698 -0.045337453 -0.10914624 0.11340398 -0.005341775 0.13779615 -0.10289148
0.34351954 -0.12946066 0.18258849 -0.0021728643 -0.2036654 0.16844888 -0.04476102 -0.15938933
-0.14095885 0.07484496 0.16591854 -0.09234364 0.14864543 -0.15986982 -0.022515975 0.07445573
-0.2079821 0.05857066 -0.13651565 -0.041103356 0.23663864 0.17650367 0.1298233 0.22399071
00000000: b4b1 a43c 0053 19be abb2 15be 2b73 533d
00000010: fbb3 73bd d6b9 893e 853c 853e 63a2 b13e
00000020: 0cc6 c23e 9fdc c13d 4c3b 643d 03a5 15be
00000030: fcc9 94bd 920e b4bb d847 8b3e 651b 883e
00000040: 69fb 673d 153f a6bd 472d 0cbe ed92 a7bd
00000050: 41b5 e43b 2d75 c63d 746b b0bd 4640 98be
00000060: 4848 0cbe 8800 d23d cbf8 10be a46c 943e
00000070: c5df aebd 708e 91bd 5078 d0bd 6b35 c1be
00000080: f288 a5be 1a67 103e 7b18 20be 9ea1 a03d
00000090: 7068 2f3e e64b 96be 6340 8cbe cc5d 3d3e
000000a0: 3a2b 9ebe a028 a93e df0d 173d 39de 3bbe
000000b0: 81a9 55bb f0f5 0e3e 44e6 433e 302a c5bd
000000c0: 1093 21bd 62f5 0abe 6650 013e 5ff6 3abe
000000d0: 3aa7 183c 7881 1cbe 5eac 0ebe baa9 c3bd
000000e0: f247 473e 42ef 783e 0d40 68be 0ccb 943d
000000f0: d69b 74be 93b8 e1bd e627 393c d6ce 8f3e
00000100: 2f91 f83d 7518 c93d 9b69 5e3e 5809 bebd
00000110: 4363 e2bd 208b 8f3e 2b2b 9c3e be40 5fbd
00000120: b72e e33d 555b 463e 5621 743d 5f06 0bbe
00000130: 8987 d13c 5bd0 aebd d45f fd3c f913 ffbb
00000140: 4b93 b8bd 8227 f03d d1f3 313c 62d0 323e
00000150: f4f0 b1bd 4c98 34be 75e9 ad3d e394 c73d
00000160: b623 7bbe f7e5 433e 48dd ab3e 25d6 56be
00000170: 4ede af3d d14d e6bd 901b 41bd 24a5 043d
00000180: d4f8 1fbd 2856 5abd ddd8 8a3e d5cc ecbc
00000190: 61b4 673e 66da 0cbe e555 18bd 7957 6cbd
000001a0: f1b3 0b3e 417d 4bbe 2762 de3d c165 6ebe
000001b0: cd47 573e 9a37 3bbe a5bf 983e f72e 8cbc
000001c0: 0f8e a53d f50a ae3d ee07 4fbe c626 413e
000001d0: 8b86 473e e806 0dbe 4a09 90be 9da3 c9bd
000001e0: 0f77 833e 0c00 123e 9265 773e 8dcf 5b3e
000001f0: daaf c8bd 7d33 7a3b 960d 55be 2b6b d2be
00000200: 725a d3bd 1807 8a3d bae2 cdbd a740 b03c
00000210: a8f2 513e 7dac 443c 63fb 133d 439d 5ebe
00000220: 96d2 ff3e 07c5 e13d 401d 8ebe b73b c7bc
00000230: 4472 ebbd 6b4e 053e 8c4f aabe 533d 9cbd
00000240: 5af0 87bc 7ac3 623c f91a d93c ee5a 0e3c
00000250: 83d9 8d3e b257 51be 200a 3e3e ba8c e33b
00000260: 2ea3 ebbd 19c0 94bd 6ea4 253e 0312 20bd
00000270: ffd7 e7bd 40c2 ddbd 122c adbc e036 d0be
00000280: 4930 a9be f432 c6bd 32ad d2bd 98ef c63d
00000290: 0c17 14bd 3ebe e6bd c6ef 93be ac25 3ebd
000002a0: 574e 1cbe ec16 2b3d 3ef7 143e 4854 2fbe
000002b0: 7466 f43d 9dd4 ebbd 79d9 1bbe d31d 42be
000002c0: 9262 99bc 9c2c 65be e876 d9bc 1c46 bdbc
000002d0: 0451 dfbd 0012 7e3e 96e5 8a3e e65f 863e
000002e0: b02a 4c3e d1b9 d73d dd74 a13c 4d2b aebd
000002f0: 68e5 2abd 331d b73c 90b6 ddbd d4cc 803d
00000300: d82c 0bbe e89f 573e 9874 62bd 1a75 88be
00000310: 3a5d 31bd aa4d c23d f1d1 8b3e 59ac 1dbe
00000320: 58a5 0abd d0d7 a83e 663f 0a3e a3eb 83be
00000330: 54f7 2ebd 2655 bfbd a812 563d 7a71 0ebd
00000340: 4aad 783c fbfe 09be a549 2e3e f770 88bd
00000350: 6651 fcbc c5d6 0a3d a0b1 013e 2888 8fbe
00000360: 0e46 9a3d 7401 a6bd 331d 40be 923a 523d
00000370: 94b7 e93d cc25 543e 1c1e 97bc d77e b3bd
00000380: 7f68 be3e 08ef fc3c c4b3 39bd 1088 dfbd
00000390: 5940 e83d 0e0a afbb 6f1a 0d3e c5b8 d2bd
000003a0: cbe1 af3e 5691 04be 7af8 3a3e 9d66 0ebb
000003b0: aa8d 50be dd7d 2c3e 5557 37bd f536 23be
000003c0: 8457 10be 5048 993d 8de6 293e aa1e bdbd
000003d0: 8236 183e eab4 23be 6c73 b8bc 3f7c 983d
000003e0: 42f9 54be cae7 6f3d c2ca 0bbe fe5b 28bd
000003f0: 6651 723e 61bd 343e 66f0 043e d25d 653e

enc1.bottleneck.1.weight f4 [16]
1.4212476 1.1290275 1.2333485 1.1931878 1.3184409 0.74741 1.2683499 1.2192122
1.2311778 1.329535 1.1717614 1.2069854 1.2389463 1.5001156 0.7086585 1.1490537
00000000: 71eb b53f f983 903f 5dde 9d3f 61ba 983f
00000010: acc2 a83f 4356 3f3f 4a59 a23f 250f 9c3f
00000020: 3c97 9d3f 342e aa3f 47fc 953f 7f7e 9a3f
00000030: cb95 9e3f ca03 c03f a56a 353f 3114 933f

enc1.bottleneck.1.bias f4 [16]
-0.008223333 0.008323573 0.2229829 0.06370433 0.28658935 -0.40148047 0.0639218 0.0712032
-0.2085735 0.070471965 0.27166262 0.1897085 0.3490751 -0.43291146 0.2494998 0.46471155
00000000: 29bb 06bc 985f 083c a155 643e 6a77 823d
00000010: d7bb 923e d98e cdbe 6fe9 823d fcd2 913d
00000020: 4b94 55be 9b53 903d 5d17 8b3e f242 423e
00000030: f9b9 b23e 92a6 ddbe e07c 7f3e acee ed3e

enc1.bottleneck.1.running_mean f4 [16]
0.12886271 -0.020862382 0.02862098 0.03754408 0.019812375 -0.003797329 -0.021305274 -0.05173969
-0.04825663 -0.018650467 -0.027482303 0.052459408 0.056134533 -0.06660433 -0.00020410544 -0.03697391
00000000: 96f4 033e 96e7 aabc 8c76 ea3c d2c7 193d
00000010: 904d a23c 9cdc 78bb 6688 aebc ffec 53bd
00000020: bea8 45bd ddc8 98bc 9122 e1bc addf 563d
00000030: 53ed 653d da67 88bd 2305 56b9 f471 17bd

enc1.bottleneck.1.running_var f4 [16]
0.011546144 0.0015119312 0.0005970445 0.0011662326 0.0011884638 0.0001374813 0.000384372 0.0025397174
0.0020299484 0.0005781844 0.0011234789 0.002377419 0.002405088 0.002282236 0.0004870617 0.00083159143
00000000: 0a2c 3d3c fe2b c63a fa82 1c3a 46dc 983a
00000010: 3ac6 9b3a db28 1039 8985 c939 6371 263b
00000020: e208 053b 4c91 173a b241 933a 79ce 1b3b
00000030: ae9e 1d3b 9191 153b 515c ff39 28ff 593a

enc1.fuse.est.mlp.0.weight f4 [16, 2]
0.6657309 -0.26644892 0.48382115 -0.29706407 0.39771953 -0.03293884 -0.01897389 -0.10270952
-0.33329153 0.3953392 -0.07853258 0.23254484 -0.16498366 0.07541173 0.31735843 0.03655602
-0.019422796 -0.68291116 -0.075968444 0.3296822 -0.1789777 0.25635153 0.25032377 0.3035484
0.54883796 0.16891132 -0.46511707 0.49568063 0.78349835 0.15110904 -0.21884733 -0.23186986
00000000: 576d 2a3f fe6b 88be 68b7 f73e c818 98be
00000010: e5a1 cb3e e1ea 06bd 226f 9bbc 5e59 d2bd
00000020: 30a5 aabe e669 ca3e b0d5 a0bd 3c20 6e3e
00000030: 7af1 28be 7771 9a3d ce7c a23e c4bb 153d
00000040: 8e1c 9fbc 44d3 2ebf 5895 9bbd 1bcc a83e
00000050: ee45 37be 8240 833e 702a 803e b26a 9b3e
00000060: a580 0c3f 17f7 2c3e d323 eebe dac9 fd3e
00000070: 5993 483f 54bc 1a3e 8419 60be 4b6f 6dbe

enc1.fuse.est.mlp.0.bias f4 [16]
-0.43211427 0.48999622 0.42486432 0.6042806 -0.21015853 -0.19061702 0.24114166 -0.056301188
0.2944971 0.26907775 0.43806037 -0.45205495 0.6263108 0.18985584 -0.22641475 0.4461995
00000000: 153e ddbe c9e0 fa3e d187 d93e 22b2 1a3f
00000010: cc33 57be 1c31 43be d7ed 763e 139c 66bd
00000020: 53c8 963e 8fc4 893e 7349 e03e bf73 e7be
00000030: e855 203f 9269 423e 45d9 67be 4374 e43e

enc1.fuse.est.mlp.2.weight f4 [1, 16]
-0.14591324 0.104199894 -0.0675226 0.24874221 0.122264475 0.13350317 0.06282963 0.09228622
0.093511894 0.12952259 -0.09350335 -0.09334496 -0.19266918 0.06601493 -0.32106245 0.11457389
00000000: 486a 15be c166 d53d 4a49 8abd 47b6 7e3e
00000010: cc65 fa3d 0eb5 083e d2ac 803d 8f00 bd3d
00000020: 2a83 bf3d 92a1 043e af7e bfbd a42b bfbd
00000030: 124b 45be d632 873d 4c62 a4be b7a5 ea3d

enc1.eca.conv.weight f4 [1, 1, 5]
0.47066823 -0.17962918 -0.00951063 0.18869466 0.3355332
00000000: 6dfb f03e b6f0 37be 79d2 1bbc 2c39 413e
00000010: 02cb ab3e

enc1.ca.conv1.weight f4 [8, 16, 1, 1]
-0.10559701 -0.37382615 0.041574556 -0.0034718418 -0.1858457 0.46587357 0.026923928 0.04432509
-0.06807818 0.011171738 0.05963118 0.23373203 -0.11780893 -0.13743193 0.07910616 -0.073212236
-0.03135252 0.10830556 -0.037641305 -0.058945466 -0.06067188 0.18765196 0.33000788 0.18684918
-0.3753835 0.14815776 -0.29441145 -0.16352111 0.2003285 0.14603621 0.11144397 -0.14292087
0.00577783 0.10049193 -0.06770042 -0.12945819 -0.044848304 -0.58144885 -0.11029223 0.09115004
-0.09926685 -0.074322715 -0.081744164 -0.12862812 0.3195702 0.20861745 -0.2388238 -0.0026836856
0.016721245 -0.096045345 -0.09724293 -0.16125216 -0.016539121 -0.20434693 -0.16360053 0.1772839
-0.02477622 -0.07471212 -0.1745322 -0.20784812 0.001469988 -0.18534261 -0.20675167 0.042294666
-0.032957315 -0.2239472 0.013103942 0.050846595 -0.1707982 -0.00029559204 0.21651086 0.36718062
0.07117075 -0.19959746 0.23288211 0.14713302 0.02028926 0.08348244 -0.22737294 -0.040718943
-0.04886037 -0.08704732 0.14179683 -0.107952 -0.20846179 -0.12958951 0.1366823 0.093769394
-0.13361308 0.14227112 -0.0311117 0.010706524 -0.055190455 0.43621486 0.07424642 0.42254815
0.13948396 0.018498547 -0.1160708 -0.078240424 -0.1250873 -0.14075196 0.12328819 -0.1083683
0.30556607 0.2930092 -0.19875918 -0.082484536 0.2940995 -0.13086356 -0.003887516 0.0567383
0.012054198 -0.058749676 -0.2083392 -0.31174186 0.1639803 -0.4998024 0.16408892 0.1151384
0.1090457 0.103173554 0.0786353 -0.031673476 -0.11658281 0.3285581 -0.072352536 0.22132787
00000000: 3f43 d8bd 2466 bfbe 154a 2a3d d787 63bb
00000010: 564e 3ebe fb86 ee3e 928f dc3c 3a8e 353d
00000020: 936c 8bbd aa09 373c d33f 743d 7357 6f3e
00000030: cf45 f1bd f5ba 0cbe 6902 a23d 4cf0 95bd
00000040: 806b 00bd 4ecf dd3d c52d 1abd cd70 71bd
00000050: 1483 78bd d627 403e cbf6 a83e 6455 3f3e
00000060: 4432 c0be abb6 173e 19bd 96be 1472 27be
00000070: ea22 4d3e 848a 153e bc3c e43d d959 12be
00000080: f353 bd3b b7ce cd3d 85a6 8abd b090 04be
00000090: dbb2 37bd d5d9 14bf e5e0 e1bd dfac ba3d
000000a0: 6b4c cbbd 8236 98bd 7c69 a7bd 17b7 03be
000000b0: b59e a33e d09f 553e 3a8e 74be c6e0 2fbb
000000c0: fefa 883c 6cb3 c4bd 4d27 c7bd 491f 25be
000000d0: 0d7d 87bc 5240 51be e686 27be e989 353e
000000e0: 80f7 cabc ab02 99bd 92b8 32be 23d6 54be
000000f0: 9dac c03a 74ca 3dbe b6b6 53be 2c3d 2d3d
00000100: 40fe 06bd 6a52 65be ebb1 563c 8544 503d
00000110: b9e5 2ebe b1f9 9ab9 06b5 5d3e 19ff bb3e
00000120: f8c1 913d 4763 4cbe a678 6e3e 0aaa 163e
00000130: aa35 a63c d7f8 aa3d 74d4 68be e8c8 26bd
00000140: d021 48bd de45 b2bd 3033 113e f015 ddbd
00000150: 0277 55be 1db3 04be 72f6 0b3e 2b0a c03d
00000160: ded1 08be 85af 113e f7dd febc 6b6a 2f3c
00000170: 630f 62bd 8e57 df3e 820e 983d 3b58 d83e
00000180: e2d4 0e3e 448a 973c 87b6 edbd 843c a0bd
00000190: e316 00be 4821 10be 857e fc3d 33f0 ddbd
000001a0: 2873 9c3e 4d05 963e 8787 4bbe a7ed a8bd
000001b0: 3694 963e 1901 06be b2c5 7ebb 6b66 683d
000001c0: f97e 453c 80a3 70bd df56 55be a19c 9fbe
000001d0: 74ea 273e 1ae6 ffbe ed06 283e aecd eb3d
000001e0: 5a53 df3d a84c d33d 8b0b a13d 0cbc 01bd
000001f0: f8c2 eebd c438 a83e 912d 94bd c6a3 623e

enc1.ca.bn1.weight f4 [8]
1.0990081 1.0296963 1.163325 1.1441785 1.0907568 1.2019192 0.88908434 1.0755689
00000000: 4cac 8c3f 17cd 833f d5e7 943f 7174 923f
00000010: eb9d 8b3f 7dd8 993f 089b 633f 3eac 893f

enc1.ca.bn1.bias f4 [8]
-0.10930757 -0.429144 0.3174535 0.20795345 0.43675607 0.3149776 0.28093004 0.24362034
00000000: a6dc dfbd c3b8 dbbe 4489 a23e c0f1 543e
00000010: 7e9e df3e be44 a13e 10d6 8f3e 9c77 793e

enc1.ca.bn1.running_mean f4 [8]
-0.05167 -0.0011158348 -0.0072240657 -0.08151736 0.026135132 0.070606954 0.0327425 0.04867041
00000000: eca3 53bd 3441 92ba dbb7 ecbb 93f2 a6bd
00000010: 5819 d63c 619a 903d 001d 063d a05a 473d

enc1.ca.bn1.running_var f4 [8]
0.0013546251 0.0012267041 0.0018288227 0.0035427865 0.004320712 0.018707633 0.001063175 0.030577919
00000000: ad8d b13a 5cc9 a03a 1bb5 ef3a 182e 683b
00000010: c294 8d3b c040 993c 3c5a 8b3a 8b7e fa3c

enc1.ca.conv_h.weight f4 [16, 8, 1, 1]
-0.122642726 0.14849542 0.38576964 -0.103528425 0.40581092 0.20699522 0.07026661 0.27510086
0.48275432 -0.050893854 -0.20889854 -0.1363503 0.30603206 0.24484383 0.18864448 -0.28115645
0.22263038 -0.18974675 0.24138117 0.24469633 0.2782662 0.02790909 0.21455158 -0.15758294
-0.052968886 -0.30431435 0.2316323 0.05782022 -0.041748147 0.3836627 0.31188542 -0.065141305
0.22492333 -0.5604511 0.14446798 0.04327246 -0.19580159 0.35438004 0.11298337 -0.083556786
-0.20121829 0.025469666 -0.02571334 -0.040921748 -0.04646509 -0.18383668 -0.00094067195 -0.16217217
-0.117373645 -0.46851572 0.20262562 0.2603939 -0.07308231 0.23596133 0.13563107 -0.021586448
-0.34451792 -0.31299657 0.31938037 0.62793696 0.21938924 0.35678053 0.30463648 0.4560777
-0.47755325 -0.117254555 -0.22559796 0.022945242 -0.17716599 0.3044285 -0.10314349 0.310541
-0.14379162 -0.32998532 0.6358015 0.035721943 0.23273581 -0.045872595 -0.05167136 0.2836214
-0.5066295 0.6371307 0.15007597 0.19086017 0.22139537 0.68714356 0.25938502 0.1344588
0.10171311 -0.07248583 0.09736179 0.1593206 -0.21552932 -0.043685544 0.03050969 0.10491553
0.27446172 0.27457502 -0.23823698 -0.07938312 0.14704926 -0.0119976755 0.052121866 -0.18621463
-0.12223862 -0.32868755 -0.072234884 0.22266053 0.22824028 0.04488684 0.40964618 0.38188
-0.11793395 -0.4774247 0.059132848 0.058234677 0.35417145 0.04794616 0.0049077156 -0.09652273
0.1551906 -0.07936384 0.12346482 -0.05188061 -0.210664 0.31206176 -0.1601167 -0.2567319
00000000: 1c2c fbbd 2f0f 183e 9983 c53e b606 d4bd
00000010: 73c6 cf3e 8ef6 533e f1e7 8f3d 05da 8c3e
00000020: 932b f73e 1376 50bd 80e9 55be 6a9f 0bbe
00000030: 3cb0 9c3e 57b8 7a3e 052c 413e bdf3 8fbe
00000040: 38f9 633e f94c 42be a02c 773e ad91 7a3e
00000050: e878 8e3e 9ba1 e43c 69b3 5b3e 6c5d 21be
00000060: e7f5 58bd 17cf 9bbe 0531 6d3e e5d4 6c3d
00000070: 1b00 2bbd 706f c43e 72af 9f3e ce68 85bd
00000080: 4d52 663e b979 0fbf 6aef 133e 773e 313d
00000090: 3680 48be 4d71 b53e d363 e73d d21f abbd
000000a0: 2b0c 4ebe c3a5 d03c c8a4 d2bc 909d 27bd
000000b0: 2e52 3ebd af3f 3cbe 6d97 76ba 7610 26be
000000c0: 9861 f0bd 4be1 efbe 177d 4f3e 5952 853e
000000d0: 2eac 95bd d99f 713e dfe2 0a3e 10d6 b0bc
000000e0: a764 b0be 1641 a0be d385 a33e 7ac0 203f
000000f0: 93a7 603e f0ab b63e 50f9 9b3e 0483 e93e
00000100: dc81 f4be 2823 f0bd 2703 67be a9f7 bb3c
00000110: 006b 35be 0dde 9b3e e53c d3bd 3bff 9e3e
00000120: 1c3e 13be d6f3 a8be e3c3 223f 2c51 123d
00000130: 4c52 6e3e e7e4 3bbd 59a5 53bd d336 913e
00000140: 79b2 01bf ff1a 233f 84ad 193e d970 433e
00000150: 78b5 623e a4e8 2f3f 1dce 843e 91af 093e
00000160: f74e d03d 7373 94bd 9e65 c73d f024 233e
00000170: b8b3 5cbe 9def 32bd 75ef f93c f4dd d63d
00000180: 3f86 8c3e 1995 8c3e 65f4 73be 9e93 a2bd
00000190: 1594 163e e691 44bc bd7d 553d 0caf 3ebe
000001a0: 3e58 fabd bc49 a8be e2ef 93bd 1f01 643e
000001b0: d2b7 693e 43db 373d 25bd d13e c685 c33e
000001c0: 5b87 f1bd 0371 f4be 4935 723d 7c87 6e3d
000001d0: f655 b53e 3163 443d e7d0 a03b b6ad c5bd
000001e0: 49ea 1e3e 8289 a2bd 20db fc3d c380 54bd
000001f0: 4eb8 57be 8fc6 9f3e a2f5 23be 5d72 83be

enc1.ca.conv_w.weight f4 [16, 8, 1, 1]
0.13255201 0.06848685 0.22099836 0.19060384 0.45230973 0.26039013 -0.16619766 0.3330531
-0.051884025 0.02844782 -0.23680604 -0.22511232 -0.021526081 0.37944192 -0.08226716 -0.010837555
-0.1129564 -0.44724622 0.17400368 0.16987589 0.15821648 -0.17377932 0.51531124 -0.06614544
0.06537134 0.13932261 0.012625072 0.27853703 0.26221704 -0.033085838 -0.25836983 -0.13125871
-0.0012926325 0.07930967 0.10076404 0.030566018 -0.0320307 0.006026816 -0.069390304 -0.16634105
0.006462105 0.5206242 -0.0028164673 -0.12468744 -0.5689369 -0.023441477 0.35202727 0.1135692
0.048648726 -0.15767097 0.46735573 0.11030365 0.50068575 0.033078678 0.19165371 0.2615555
-0.72447926 0.09742052 0.6064248 -0.052639842 -0.0864029 0.51527435 0.26389554 0.1788423
-0.24407917 -0.38402262 -0.11710728 -0.04161409 0.14558005 -0.10441919 -0.20857452 0.5423343
-0.012136627 0.1586674 0.47733226 -0.18906468 0.5581165 0.29581416 0.056754667 0.22066805
-0.33766752 -0.058880612 0.29419273 0.30039203 -0.056509417 -0.08851688 0.20616542 0.0113160005
-0.054009177 -0.35852674 -0.024770636 0.035748616 -0.04639137 0.08285384 0.18373123 -0.25304437
-0.06746035 -0.37872967 -0.03302 0.07191419 -0.17593762 -0.26934478 -0.07814247 0.30989257
-0.6401819 -0.13439474 0.022550333 0.6187451 0.1447853 0.043995105 -0.04656399 0.18677181
0.030496888 0.38311955 -0.09808948 0.0684709 0.14223997 -0.07653363 0.043480538 0.05250739
0.3859636 -0.26594934 -0.31208268 -0.18309288 -0.19150741 0.30143595 0.2602169 -0.24320042
00000000: b7bb 073e d542 8c3d 654d 623e a72d 433e
00000010: 2495 e73e db51 853e b82f 2abe f085 aa3e
00000020: 5884 54bd 670b e93c 487d 72be d883 66be
00000030: 7757 b0bc 3646 c23e af7b a8bd 0090 31bc
00000040: af55 e7bd 75fd e4be 052e 323e f2f3 2d3e
00000050: 8003 223e 35f3 31be 70eb 033f 4377 87bd
00000060: 69e1 853d 96aa 0e3e 64d9 4e3c 689c 8e3e
00000070: 5041 863e 0485 07bd 0d49 84be af68 06be
00000080: 8d6d a9ba 1c6d a23d 615d ce3d 9665 fa3c
00000090: a032 03bd 997c c53b 811c 8ebd 4f55 2abe
000000a0: 11c0 d33b a147 053f 7b94 38bb 215c ffbd
000000b0: d9a5 11bf 5708 c0bc eb3c b43e f896 e83d
000000c0: e343 473d 8074 21be 4049 ef3e e1e6 e13d
000000d0: f12c 003f 827d 073d df40 443e 9aea 853e
000000e0: 7977 39bf 6984 c73d a83e 1b3f e09c 57bd
000000f0: 01f4 b0bd 05e9 033f 511d 873e 7022 373e
00000100: e4ef 79be 9d9e c4be f1d5 efbd 8973 2abd
00000110: f012 153e bad9 d5bd 8f94 55be 6cd6 0a3f
00000120: b4d8 46bc b579 223e e564 f43e 2c9a 41be
00000130: b9e0 0e3f f474 973e 9577 683d cef6 613e
00000140: c2e2 acbe cc2c 71bd 6ea0 963e fccc 993e
00000150: 6b76 67bd 5748 b5bd 071d 533e bf66 393c
00000160: ba38 5dbd d190 b7be caeb cabc 246d 123d
00000170: e104 3ebd 46af a93d 0a24 3c3e 088f 81be
00000180: a728 8abd dbe8 c1be fb3f 07bd bf47 933d
00000190: fe28 34be 8fe7 89be 2909 a0bd 3daa 9e3e
000001a0: f6e2 23bf c69e 09be 7abb b83c 1466 1e3f
000001b0: 9942 143e 3634 343d e2b9 3ebd 1c41 3f3e
000001c0: 9cd4 f93c 3f28 c43e 23e3 c8bd 793a 8c3d
000001d0: 5ba7 113e aabd 9cbd a618 323d fd11 573d
000001e0: 059d c53e 832a 88be 4dc9 9fbe b37c 3bbe
000001f0: 851a 44be d055 9a3e 263b 853e 8809 79be

down1.weight f4 [16, 16, 3, 3]
0.002420747 -0.05091823 0.011960793 -0.004115843 0.13538137 0.06334528 0.02006454 0.12481436
0.12772256 0.00041045988 -0.014648783 0.0062654465 0.040919993 0.07964343 -0.03205397 0.033438664
0.11253553 0.116946414 0.018269729 -0.04125004 -0.031067224 -0.08649975 -0.08878833 0.07076265
0.01899538 0.022618318 -0.07408328 0.059999235 -0.0008600446 -0.15333055 -0.06234995 0.014626196
0.031818897 0.04343026 0.07274227 -0.04161596 -0.0009710032 -0.032751366 0.09335192 -0.11548631
-0.04731204 -0.0033566204 0.052326627 -0.02427572 0.09878182 0.044735946 -0.11244654 0.010694485
-0.06159608 0.03263384 -0.060761232 -0.06671835 0.023160473 0.108212955 -0.07995305 0.0554893
0.26506385 0.061726093 0.08728552 -0.06925544 -0.301349 -0.1033926 -0.14411841 0.05718109
-0.07065678 -0.060225636 0.046984356 -0.053210042 0.019731227 0.016528076 0.023150083 0.106195636
0.10252588 -0.055961214 0.28564999 0.13321087 -0.003529253 0.08397091 0.118463494 0.10499811
0.085712075 0.11775 0.143907 -0.115078345 0.093276404 0.013747475 0.059358638 0.100913376
0.10077864 0.0050959466 -0.07646648 -0.0039878967 -0.0019992036 -0.019012038 -0.0015640395 0.012551411
-0.085478045 0.00047710375 -0.026867768 0.024160372 0.0038631912 -0.15014352 0.07115821 0.091619626
-0.020079073 0.021149287 0.03398404 -0.020861942 -0.014723347 -0.07335857 0.0003210031 0.037487883
-0.043775927 0.019140942 -0.074105434 0.017849574 0.04217861 -0.0053303465 0.040886797 0.0972887
-0.03045661 -0.023952577 -0.03255242 -0.0683158 0.02130562 -0.036611967 -0.04234887 0.054567814
0.091062695 -0.062429715 -0.005742726 -0.024335556 0.057047207 0.037825037 0.017308297 0.0044476427
0.007695317 -0.090527765 0.004888919 0.021092242 0.008389866 -0.02953624 0.029340448 -0.044860676
0.079665154 0.22016512 0.025258673 0.13564232 0.013459119 0.014447319 0.019480579 0.0032154713
0.011150269 -0.007358637 0.10796398 0.026405675 -0.09344301 0.082756974 0.0727476 0.083285704
0.016495874 0.039563186 -0.06614437 -0.042818464 -0.017551694 -0.055565245 0.016663976 0.036167312
0.038773764 0.026534846 -0.025441632 -0.083133824 0.053874515 -0.0019366154 -0.05728737 0.014372112
0.080427125 0.12040264 0.03894386 0.08461229 0.11984274 0.07306268 0.12759916 0.02376574
0.10074748 0.025869586 -0.058257207 -0.09490972 0.03238384 -0.045838133 -0.061921522 -0.028268673
-0.045441557 -0.11139204 -0.014470891 0.07980258 0.107870676 -0.06453673 0.08589925 0.104540184
0.16521281 0.0996013 0.07919469 0.028174888 0.009584944 0.0439442 -0.031610284 -0.011448357
-0.13708988 -0.0436511 0.01424683 -0.051416617 -0.03737223 -0.02811149 0.03641167 0.052974217
0.054708254 0.05173878 0.15998656 -0.09256867 -0.06255617 0.05042503 -0.113665886 0.053058594
0.09780168 0.01728236 0.130093 0.0064041317 -0.08828983 0.08249211 0.04316289 -0.10327448
0.038497858 -0.07821261 -1.692726e-05 -0.07262418 0.06660985 -0.06119104 -0.03438198 0.010809005
-0.015408073 0.009217401 -0.03952848 0.16805424 0.04216154 0.013552674 -0.015877685 -0.009516115
-0.03189521 0.072675645 -0.0029832616 -0.040669184 -0.012430247 0.117287375 0.12755194 0.011714705
00000000: 65a5 1e3b a28f 50bd 34f7 433c 32de 86bb
00000010: 6aa1 0a3e 2cbb 813d 645e a43c ac9e ff3d
00000020: b4c9 023e fe32 d739 7301 70bc 604e cd3b
00000030: b99b 273d 181c a33d 064b 03bd fbf6 083d
00000040: 0779 e63d 9a81 ef3d 66aa 953c cdf5 28bd
00000050: b180 febc c826 b1bd a8d6 b5bd 02ec 903d
00000060: 339c 9b3c 0d4a b93c fab8 97bd c2c1 753d
00000070: 9e74 61ba af02 1dbe a962 7fbd b6a2 6f3c
00000080: 8854 023d eee3 313d e6f9 943d 7f75 2abd
00000090: ec8a 7eba 4c26 06bd 4b2f bf3d 1684 ecbd
000000a0: 45ca 41bd bffa 5bbb 7254 563d e0dd c6bc
000000b0: 1f4e ca3d 0a3d 373d 5f4a e6bd ec37 2f3c
000000c0: 2c4c 7cbd 10ab 053d c5e0 78bd a1a3 88bd
000000d0: 08bb bd3c c19e dd3d 6dbe a3bd c048 633d
000000e0: 73b6 873e 80d4 7c3d c0c2 b23d ccd5 8dbd
000000f0: 6b4a 9abe 80bf d3bd c793 13be b836 6a3d
00000100: 80b4 90bd 28af 76bd ab72 403d c6f2 59bd
00000110: 62a3 a13c e365 873c 3ea5 bd3c 197d d93d
00000120: 17f9 d13d 9637 65bd b740 923e 6e68 083e
00000130: 0a4b 67bb f1f8 ab3d fd9c f23d 4009 d73d
00000140: d089 af3d e926 f13d 5b5c 133e 32ae ebbd
00000150: b307 bf3d 173d 613c 0b22 733d acab ce3d
00000160: 0865 ce3d e6fb a63b 759a 9cbd e7ac 82bb
00000170: 1205 03bb 22bf 9bbc 7500 cdba 6fa4 4d3c
00000180: 1d0f afbd c823 fa39 cb19 dcbc f9eb c53c
00000190: 982d 7d3b 39bf 19be 65bb 913d 12a3 bb3d
000001a0: de7c a4bc 4541 ad3c d932 0b3d aae6 aabc
000001b0: 313a 71bc 053d 96bd 4f4c a839 e58c 193d
000001c0: 634e 33bd 77cd 9c3c 97c4 97bd 4539 923c
000001d0: 7ac3 2c3d 30aa aebb ea78 273d 4c3f c73d
000001e0: 2480 f9bc 3238 c4bc b055 05bd 27e9 8bbd
000001f0: 2089 ae3c 6ef6 15bd 0276 2dbd 8082 5f3d
00000200: 147f ba3d 4db6 7fbd 7a2d bcbb 5c5b c7bc
00000210: 55aa 693d 6dee 1a3d 21ca 8d3c 88bd 913b
00000220: ff28 fc3b 9f66 b9bd 3a33 a03b a3c9 ac3c
00000230: a675 093c fcf5 f1bc 615b f03c d4bf 37bd
00000240: 7c27 a33d f772 613e 47eb ce3c d2e5 0a3e
00000250: a383 5c3c 73b4 6c3c bc95 9f3c a8ba 523b
00000260: 9eaf 363c b920 f1bb 381c dd3d b750 d83c
00000270: 0c5f bfbd 7d7c a93d b2fc 943d b291 aa3d
00000280: 5b22 873c 020d 223d b376 87bd 6a62 2fbd
00000290: 92c8 8fbc 6298 63bd e482 883c 2d24 143d
000002a0: 3dd1 1e3d 9b5f d93c f86a d0bc 1142 aabd
000002b0: 86ab 5c3d 08d6 fdba 29a6 6abd 0279 6b3c
000002c0: fab6 a43d a995 f63d 9983 1f3d 3549 ad3d
000002d0: 1c70 f53d e3a1 953d 5ba9 023e 5fb0 c23c
000002e0: b254 ce3d 74ec d33c 1c9f 6ebd 0760 c2bd
000002f0: eba4 043d c4c0 3bbd 6ca1 7dbd b493 e7bc
00000300: ed20 3abd 8321 e4bd 5117 6dbc 896f a33d
00000310: 4deb dc3d d52b 84bd f2eb af3d 2a19 d63d
00000320: 8c2d 293e c4fb cb3d d330 a23d 06cf e63c
00000330: 2b0a 1d3c d5fe 333d c979 01bd e491 3bbc
00000340: 4a61 0cbe 7fcb 32bd 896b 693c 3b9a 52bd
00000350: a013 19bd 114a e6bc 6724 153d 7efb 583d
00000360: c315 603d 0bec 533d 84d3 233e a594 bdbd
00000370: 731d 80bd 7a8a 4e3d a9c9 e8bd f853 593d
00000380: 3f4c c83d bc93 8d3c 1937 053e c0d9 d13b
00000390: 4cd1 b4bd a0f1 a83d 92cb 303d 9281 d3bd
000003a0: eeaf 1d3d ef2d a0bd 04ff 8db7 fcbb 94bd
000003b0: bf6a 883d 75a3 7abd 1ed4 0cbd 4118 313c
000003c0: 2472 7cbc 9504 173c 9ee8 21bd 6916 2c3e
000003d0: 94b1 2c3d 090c 5e3c eb11 82bc 7be9 1bbc
000003e0: 8da4 02bd f8d6 943d d382 43bb bb94 26bd
000003f0: 3ca8 4bbc 5d34 f03d fa9c 023e 09ef 3f3c

enc2.bottleneck.0.weight f4 [16, 16, 1, 1]
-0.26245144 -0.1471448 0.054807402 0.1126171 0.1678601 -0.2998061 -0.032381758 0.07441772
-0.042462043 -0.06963192 0.2602866 -0.24021865 0.27876756 -0.08841799 -0.12624513 -0.27892494
-0.03164221 0.0052870195 -0.17022796 0.14738713 0.29241487 0.0075046774 0.26299345 0.1293558
0.03758288 0.022144208 -0.005695652 0.15760736 0.3115909 0.1588883 0.096604735 -0.10171566
0.17184797 -0.0389809 0.17319909 -0.10543056 0.12276288 0.08176443 0.050275143 0.0051525664
0.31246322 0.005269674 0.18041246 -0.05149862 0.17167695 0.20168485 -0.13619684 0.17075865
-0.21652818 -0.17154357 -0.24033616 -0.14938413 0.04789125 -0.13011634 -0.16529554 0.123556994
-0.29637548 0.1315353 0.185891 -0.2469497 0.021061292 -0.052821703 -0.21880879 -0.047430225
-0.2494612 -0.052339815 0.3768554 0.014569621 -0.04614557 -0.040036205 0.1447233 -0.17832637
-0.0204669 0.064010136 0.11134006 -0.33942375 -0.27000812 -0.111054555 -0.044983342 0.24473836
0.021096041 0.011781503 0.29672682 0.17477106 0.27931878 -0.1341576 0.0704098 -0.111152396
0.1092998 -0.35362014 -0.06638416 -0.18943292 -0.28471774 -0.21636407 -0.29544076 -0.14638911
-0.109247304 0.16665828 0.13212842 -0.037131347 -0.3796276 0.19236751 0.02181383 -0.092082374
0.3912637 -0.23662254 0.093149975 0.21019737 -0.20450346 0.19193162 0.02573869 0.025471346
-0.30110195 -0.113446765 0.09195771 -0.17864737 0.06846912 0.30698666 -0.093923986 0.07818367
-0.16728146 0.10293725 -0.0965743 -0.021396087 -0.25877172 -0.095719926 0.14167629 0.2142077
-0.0020110554 0.16502477 -0.07236943 0.08021927 -0.47364545 -0.07820547 -0.10805192 0.14762145
0.17336039 -0.10743746 -0.09757366 -0.012570286 -0.23033716 0.112594426 0.2794609 -0.01871529
0.09448709 0.14570154 -0.08475173 0.14807089 0.10120869 0.14907302 0.2447556 0.13928789
0.33992007 0.033457205 -0.015950987 -0.010661222 -0.106332906 -0.1903924 -0.21203387 0.1860578
0.037417985 0.04637166 -0.019358443 0.0032162848 0.0106414845 -0.25571483 -0.19187331 0.24074727
0.049138173 0.1461458 0.38193265 0.08234331 -0.3537493 -0.013761373 0.19676575 0.21717802
-0.35892597 -0.15678708 0.2286287 0.18020552 0.2074495 -0.16295761 -0.15891472 0.21109582
-0.17797275 0.14576904 0.18394537 -0.11453539 0.2006261 0.18530317 0.08287074 0.01773599
0.27602124 -0.15015864 -0.17504898 0.04773101 0.14243855 -0.052124824 0.00061319437 0.17712207
0.098540425 0.08544375 -0.31712723 0.21353684 0.014493322 0.042456564 -0.006138653 0.10802756
-0.042652223 -0.18525177 -0.045777857 0.027971337 0.102493815 -0.30233765 -0.4520661 0.15947308
-0.109433696 -0.08759172 0.2583254 0.18228781 -0.28332034 0.010124172 -0.22338682 -0.30704412
0.13770944 0.3194301 0.055526245 0.083561815 -0.13186772 -0.06805873 0.025272561 -0.34251413
-0.25154224 -0.069550104 -0.037048783 -0.26597488 -0.05154171 0.12572688 0.050661035 0.1650091
-0.04016701 0.13023616 -0.0032957678 0.044383988 -0.2523733 0.2413842 0.6830439 0.097871006
-0.264649 -0.014415412 0.06414795 -0.2142296 0.040090863 -0.062134217 0.278835 -0.01386754
00000000: 0960 86be 20ad 16be ba7d 603d cba3 e63d
00000010: 85e3 2b3e 2f80 99be bca2 04bd 5168 983d
00000020: aeec 2dbd 2e9b 8ebd 4944 853e e1fb 75be
00000030: 9fba 8e3e 7e14 b5bd 6746 01be 40cf 8ebe
00000040: 439b 01bd bc3e ad3b 3d50 2ebe a7ec 163e
00000050: 67b7 953e cce9 f53b 14a7 863e d975 043e
00000060: 82f0 193d c567 b53c 98a2 babb d363 213e
00000070: d888 9f3e 9db3 223e b4d8 c53d 4d50 d0bd
00000080: eaf8 2f3e 70aa 1fbd 1a5b 313e faeb d7bd
00000090: 1b6b fb3d 1c74 a73d 4fed 4d3d dcd6 a83b
000000a0: 2efb 9f3e 3bad ac3b 0bbe 383e 38f0 52bd
000000b0: 15cc 2f3e 7986 4e3e 2f77 0bbe 5bdb 2e3e
000000c0: 90b9 5dbe 1ea9 2fbe af1a 76be 27f8 18be
000000d0: 9e29 443d 383d 05be 3c43 29be 730b fd3d
000000e0: 87be 97be 31b1 063e 365a 3e3e 62e0 7cbe
000000f0: bb88 ac3c 925b 58bd 690f 60be 3246 42bd
00000100: c272 7fbe 4662 56bd 31f3 c03e 6bb5 6e3c
00000110: 2303 3dbd 01fd 23bd 5832 143e 309b 36be
00000120: 33aa a7bc bf17 833d 4206 e43d f3c8 adbe
00000130: 813e 8abe 9270 e3bd 7440 38bd b19c 7a3e
00000140: 9bd1 ac3c 3507 413c 94ec 973e 2ff7 323e
00000150: df02 8f3e 9c60 09be 0333 903d dea3 e3bd
00000160: 93d8 df3d b30d b5be 6bf4 87bd b4fa 41be
00000170: 86c6 91be 8b8e 5dbe 0344 97be 07e7 15be
00000180: 0dbd dfbd 78a8 2a3e ac4c 073e 0a17 18bd
00000190: 8c5e c2be fdfb 443e ebb2 b23c af95 bcbd
000001a0: b753 c83e 2e4d 72be 6ac5 be3d fb3d 573e
000001b0: 5b69 51be b989 443e f2d9 d23c 49a9 d03c
000001c0: 092a 9abe c756 e8bd 5354 bc3d 56ef 36be
000001d0: 8a39 8c3d 5b2d 9d3e 385b c0bd c31e a03d
000001e0: d54b 2bbe c4d0 d23d bfc8 c5bd d946 afbc
000001f0: ba7d 84be cf08 c4bd 9713 113e 4359 5b3e
00000200: e9cb 03bb 41fc 283e 6c36 94bd 004a a43d
00000210: a881 f2be 312a a0bd 534a ddbd 142a 173e
00000220: 6385 313e 2c08 dcbd b3d4 c7bd 9af3 4dbc
00000230: 81dd 6bbe e897 e63d 8015 8f3e cf50 99bc
00000240: 7382 c13d c932 153e 5192 adbd e59f 173e
00000250: 8046 cf3d 99a6 183e 36a1 7a3e 7ca1 0e3e
00000260: 010a ae3e 6c0a 093d a5ab 82bc 68ac 2ebc
00000270: 11c5 d9bd 3af6 42be 681f 59be f085 3e3e
00000280: 9a43 193d 36f0 3d3d 9995 9ebc 4ec8 523b
00000290: 9f59 2e3c 0eed 82be 707a 44be 7486 763e
000002a0: 1c45 493d 3fa7 153e ad8c c33e 9ca3 a83d
000002b0: a11e b5be 6277 61bc f67c 493e ea63 5e3e
000002c0: 25c5 b7be cb8c 20be a41d 6a3e cc87 383e
000002d0: a46d 543e 5cde 26be 8aba 22be 8129 583e
000002e0: 7d3e 36be 7b44 153e 2d5c 3c3e 8891 eabd
000002f0: ee70 4d3e 1dc0 3d3e 22b8 a93d 114b 913c
00000300: a852 8d3e 30c3 19be 0a40 33be 9781 433d
00000310: 69db 113e d780 55bd c7be 203a 7d5f 353e
00000320: 90cf c93d 22fd ae3d 805e a2be 67a9 5a3e
00000330: 6675 6d3c efe6 2d3d c126 c9bb 8e3d dd3d
00000340: 19b4 2ebd a4b2 3dbe 9081 3bbd 2524 e53c
00000350: 47e8 d13d 00cc 9abe 3575 e7be e94c 233e
00000360: c61e e0bd 4a63 b3bd 3a43 843e a8a9 3a3e
00000370: 5d0f 91be dbdf 253c 84bf 64be e334 9dbe
00000380: b403 0d3e 588c a33e 7d6f 633d 7522 ab3d
00000390: 5508 07be 6062 8bbd 6708 cf3c 035e afbe
000003a0: 25ca 80be 4970 8ebd 77c0 17bd dc2d 88be
000003b0: 661d 53bd 8cbe 003e f281 4f3d 25f8 283e
000003c0: 2a86 24bd a15c 053e cffd 57bb fccb 353d
000003d0: 1337 81be 6b2d 773e f7db 2e3f 9870 c83d
000003e0: 1380 87be 9f2e 6cbc 0060 833d 015f 5bbe
000003f0: 5136 243d 7380 7ebd 76c3 8e3e ae34 63bc

enc2.bottleneck.1.weight f4 [16]
1.2515141 1.3176359 1.1056582 0.8616045 0.9347575 1.2136557 1.191359 1.152382
1.498052 0.9328811 1.1578851 1.5140501 0.9175746 1.2109698 0.92217594 1.1008224
00000000: 9d31 a03f 4ba8 a83f 3586 8d3f 1d92 5c3f
00000010: 444c 6f3f 1259 9b3f 747e 983f 4181 933f
00000020: 2bc0 bf3f 4cd1 6e3f 9435 943f 65cc c13f
00000030: 2be6 6a3f 0f01 9b3f b913 6c3f c0e7 8c3f

enc2.bottleneck.1.bias f4 [16]
-0.12929498 0.21707213 -0.08281903 -0.0050149453 0.07409126 0.27697366 0.3601619 0.11790381
-0.57853335 0.005200542 0.01364964 -0.05306127 -0.023183873 0.0071662385 -0.110271625 0.15686908
00000000: e765 04be 2848 5e3e 069d a9bd 6954 a4bb
00000010: 29bd 973d 7ecf 8d3e 2467 b83e 8e77 f13d
00000020: c31a 14bf 4f69 aa3b bda2 5f3c c656 59bd
00000030: 1bec bdbc c4d2 ea3b 17d6 e1bd 4aa2 203e

enc2.bottleneck.1.running_mean f4 [16]
0.021920219 0.044528414 -0.08393185 0.054179005 -0.013739361 -0.040904902 -0.14725488 0.041345045
-0.089704864 0.03020901 -0.05293342 0.005401032 0.02190296 -0.02493563 -0.04860171 0.075625606
00000000: 0892 b33c 6d63 363d 76e4 abbd ceea 5d3d
00000010: 0f1b 61bc e68b 27bd fcc9 16be 6c59 293d
00000020: 2fb7 b7bd e378 f73c b7d0 58bd 24fb b03b
00000030: d66d b33c ce45 ccbc 9612 47bd 99e1 9a3d

enc2.bottleneck.1.running_var f4 [16]
0.0006062149 0.0022425072 0.0036131125 0.003663477 0.0004643647 0.0023798118 0.0077578053 0.0016264503
0.0023246938 0.0027834468 0.0015459775 0.0009473711 0.0004387482 0.005280675 0.0018843828 0.010452876
00000000: 65ea 1e3a 07f7 123b f8c9 6c3b f216 703b
00000010: fa75 f339 9ef6 1b3b 3035 fe3b 9e2e d53a
00000020: e459 183b 7d6a 363b 66a2 ca3a 0059 783a
00000030: c907 e639 8309 ad3b 65fd f63a 8a42 2b3c

enc2.fuse.est.mlp.0.weight f4 [16, 2]
-0.14507562 -0.37028888 0.7425366 0.5752878 0.49044353 -0.592098 -0.23257814 0.5478125
0.7696638 -0.15659733 0.3141301 -0.381346 0.13736469 -0.20246166 -0.6699038 -0.5916991
0.14247194 -0.4458764 -0.056162894 0.34842652 -0.4298042 0.277507 0.10403964 0.7324541
-0.11303455 -0.33510596 0.0010697842 -0.1836226 0.123440206 -0.41135314 0.37144357 -0.48551416
00000000: b48e 14be 8196 bdbe e116 3e3f 1046 133f
00000010: 6a1b fb3e bc93 17bf f728 6ebe 713d 0c3f
00000020: b008 453f 0d5b 20be a9d5 a03e c83f c3be
00000030: 54a9 0c3e 1c52 4fbe d17e 2bbf 9879 17bf
00000040: 2ae4 113e e949 e4be 100b 66bd f664 b23e
00000050: 4c0f dcbe 6615 8e3e bc12 d53d 1d82 3b3f
00000060: a87e e7bd 0293 abbe 0038 8c3a 9007 3cbe
00000070: 38ce fc3d e19c d2be da2d be3e 5095 f8be

enc2.fuse.est.mlp.0.bias f4 [16]
-0.6238049 -0.051055513 -0.53928393 0.59179795 -0.03528286 0.37073693 -0.08869457 -0.22101411
0.42256215 -0.5827611 -0.37095246 0.4030383 -0.6518574 -0.23710653 -0.39185247 -0.0072046965
00000000: aeb1 1fbf 961f 51bd 830e 0abf 1280 173f
00000010: c384 10bd 3bd1 bd3e 80a5 b5bd 8651 62be
00000020: 115a d83e d52f 15bf 7bed bdbe 095b ce3e
00000030: 20e0 26bf 0ecc 72be e3a0 c8be 6015 ecbb

enc2.fuse.est.mlp.2.weight f4 [1, 16]
-0.16761318 0.21717747 0.00791952 0.1396453 0.20394784 -0.25658876 0.024366647 -0.23138997
-0.2897987 0.07939845 -0.01193738 0.22562768 -0.21003851 -0.072790116 0.19284332 0.015595069
00000000: caa2 2bbe c563 5e3e e0c0 013c 2dff 0e3e
00000010: b4d7 503e 9a5f 83be 909c c73c 7ef1 6cbe
00000020: 7f60 94be a89b a23d 0095 43bc f10a 673e
00000030: 5614 57be fc12 95bd b878 453e 7682 7f3c

enc2.eca.conv.weight f4 [1, 1, 5]
0.042231426 0.060210317 0.58453554 0.14065576 0.07552747
00000000: dcfa 2c3d 189f 763d 1fa4 153f 1008 103e
00000010: 25ae 9a3d

enc2.ca.conv1.weight f4 [8, 16, 1, 1]
0.057917055 -0.2517954 0.1745245 0.09650189 0.07770826 -0.008121612 0.27724132 -0.013740216
-0.0099957 -0.16260332 0.30711323 -0.21883884 0.0669038 0.19070101 -0.12689665 -0.22044322
-0.24186671 -0.01535504 -0.25917447 -0.026617186 -0.15933158 -0.49064705 -0.013833114 0.026150065
-0.12843345 -0.14237285 0.060326945 0.17727979 0.047276802 -0.36092177 -0.18352269 0.056213636
-0.31406882 -0.043638792 0.1502005 0.017677335 -0.20459093 -0.13980189 0.14326848 0.0011337493
-0.2531823 -0.17667186 0.08511795 0.037700523 -0.3095157 -0.07852162 -0.09177459 0.033633515
-0.22807544 -5.319936e-05 0.16786958 -0.1680378 0.058950458 0.07251259 -0.1096192 -0.08650851
0.19748174 -0.15231094 0.1270649 0.13175395 -0.17923999 0.3781643 -0.10639154 -0.08546768
0.12553445 0.12230409 0.07472109 0.07607234 -0.18562731 0.35554588 0.30513737 0.08918291
0.1465664 -0.042629067 0.18609335 -0.40457407 0.08362002 0.0017151269 -0.15343854 0.15257087
0.20727463 0.10554341 -0.13354717 0.11072189 -0.006415205 0.15285979 -0.037251223 -0.22264951
-0.01950513 -0.34126642 0.1380667 -0.18165496 -0.12362995 0.035030246 -0.058219723 -0.06411683
-0.049070172 0.2158987 0.09466072 0.090932176 -0.21363859 0.15675104 -0.0053455182 0.06109073
0.058836605 0.14969414 0.28584304 -0.2698515 0.0755576 0.3084421 -0.06452245 0.17458637
-0.0112159215 -0.00042166217 0.29516506 0.075099334 -0.05586508 -0.08392091 0.051337797 -0.16380025
0.17852698 0.0475028 0.16975391 0.04528543 0.057021156 0.29166612 0.20638211 0.2989494
00000000: 6f3a 6d3d 54eb 80be 8db6 323e c8a2 c53d
00000010: 8225 9f3d 8210 05bc 93f2 8d3e a51e 61bc
00000020: 01c5 23bc 7c81 26be f23d 9d3e 4a17 60be
00000030: dc04 893d 2047 433e 32f1 01be debb 61be
00000040: e8ab 77be b593 7bbc 84b2 84be 490c dabc
00000050: d127 23be 1736 fbbe 49a4 62bc a938 d63c
00000060: 0f84 03be 30ca 11be 6319 773d d588 353e
00000070: 52a5 413d bdca b8be 5fed 3bbe 4540 663d
00000080: a1cd a0be 97be 32bd 29ce 193e 0fd0 903c
00000090: 4980 51be 3a28 0fbe f9b4 123e 509a 943a
000000a0: 1ca1 81be 78e9 34be 5252 ae3d dd6b 1a3d
000000b0: d878 9ebe f1cf a0bd 51f4 bbbd 4cc3 093d
000000c0: 9c8c 69be 6122 5fb8 01e6 2b3e 1a12 2cbe
000000d0: 0976 713d 7b81 943d 0880 e0bd 602b b1bd
000000e0: a738 4a3e 66f7 1bbe 4d1d 023e 82ea 063e
000000f0: b08a 37be c09e c13e cfe3 d9bd ae09 afbd
00000100: 1a8c 003e 917a fa3d 5f07 993d d1cb 9b3d
00000110: 1615 3ebe 1c0a b63e f73a 9c3e 88a5 b63d
00000120: 8115 163e d19b 2ebd 418f 3e3e 5524 cfbe
00000130: f940 ab3d 1cce e03a fe1e 1dbe 8a3b 1c3e
00000140: cd3f 543e 2527 d83d 97c0 08be 29c2 e23d
00000150: a436 d2bb 4787 1c3e bd94 18bd 3cfe 63be
00000160: 39c9 9fbc 79ba aebe 5b61 0d3e c203 3abe
00000170: b331 fdbd e07b 0f3d ce77 6ebd af4f 83bd
00000180: cefd 48bd 8c14 5d3e 7bdd c13d a63a ba3d
00000190: 13c4 5abe 5883 203e 7529 afbb 463a 7a3d
000001a0: a7fe 703d 6c49 193e 055a 923e fa29 8abe
000001b0: f1bd 9a3d 1fec 9d3e 5924 84bd c5c6 323e
000001c0: fcc2 37bc 8a12 ddb9 e01f 973e aecd 993d
000001d0: c8d2 64bd bade abbd 9547 523d 41bb 27be
000001e0: c7cf 363e 4c92 423d f8d3 2d3e 377d 393d
000001f0: 048f 693d 4355 953e d555 533e e50f 993e

enc2.ca.bn1.weight f4 [8]
1.038432 1.0041434 1.0762281 1.1439737 0.9167263 1.1074346 0.86567944 0.9163076
00000000: 57eb 843f c587 803f d8c1 893f bb6d 923f
00000010: 93ae 6a3f 6bc0 8d3f 2b9d 5d3f 2393 6a3f

enc2.ca.bn1.bias f4 [8]
0.4460059 0.3876264 0.335 0.05144603 0.66682065 0.31265843 -0.27575675 0.06324716
00000000: e35a e43e f876 c63e 1f85 ab3e 13b9 523d
00000010: c2b4 2a3f c414 a03e fd2f 8dbe ba87 813d

enc2.ca.bn1.running_mean f4 [8]
0.01241308 -0.11060794 -0.039805625 0.009700652 0.10343959 -0.016941933 0.090763345 0.07105757
00000000: 3b60 4b3c 6a86 e2bd 390b 23bd 7cef 1e3c
00000010: 23d8 d33d cfc9 8abc 22e2 b93d a286 913d

enc2.ca.bn1.running_var f4 [8]
0.020914426 0.016336529 0.0027656753 0.008831628 0.005280729 0.004246035 0.0028688805 0.003540685
00000000: bb54 ab3c 2fd4 853c 5540 353b 88b2 103c
00000010: f709 ad3b 5322 8b3b d403 3c3b d60a 683b

enc2.ca.conv_h.weight f4 [16, 8, 1, 1]
0.34424272 0.40457767 0.41475123 0.089684054 0.29203808 -0.64584225 -0.15879211 0.09762572
0.11780668 -0.10355373 -0.0891878 0.07148075 -0.15673523 -0.16201851 -0.0698502 -0.30148932
0.38011283 -0.13904586 0.14015892 -0.041176077 0.2921655 0.33797196 0.19800891 -0.1867334
0.09932346 -0.51518756 -0.06371526 0.2844491 -0.20817316 -0.27486464 -0.20986214 0.08237569
-0.31042215 0.23767424 0.085108764 -0.29900613 -0.027882908 0.47017372 -0.11244084 -0.31647637
0.47573584 0.118084006 -0.19070536 -0.14945959 -0.0872852 -0.3070628 -0.30072403 -0.17101295
0.035594556 0.07016011 0.47611105 0.074118555 0.45176315 0.1272288 0.010185149 0.03867113
-0.12209867 0.07136215 0.3632013 -0.2229632 0.15955703 0.13415131 -0.12458348 0.056059714
0.25814027 0.32368484 0.24398327 0.23609108 0.38995767 0.4857992 0.24339573 0.27931905
0.18230525 -0.050985675 0.08307661 0.15600099 -0.14029656 -0.17950125 -0.19077267 0.082069494
0.17623585 0.20058082 0.3406807 0.5123006 0.060632385 0.08544059 -0.09608998 0.27933753
-0.20325238 0.29285946 0.5620144 0.04653125 0.06579593 0.19868042 -0.041830137 -0.11047461
-0.37212792 0.08560044 -0.0044152625 0.2628481 -0.061794903 -0.0030598568 0.020127773 0.026033647
0.25528607 0.07374629 0.1336306 0.34358197 0.06901269 -0.09905999 -0.23146865 0.2773377
0.21338478 0.08297591 -0.3483732 -0.2757694 -0.15423504 -0.018216886 0.29323217 0.07542013
0.3660278 0.5405164 0.41829076 -0.12810288 -0.0538627 0.055639546 0.38195476 0.29197943
00000000: 9540 b03e ce24 cf3e 465a d43e 46ac b73d
00000010: 0486 953e eb55 25bf 669a 22be feef c73d
00000020: a144 f13d fa13 d4bd 18a8 b6bd 8064 923d
00000030: 337f 20be 2ee8 25be 9f0d 8fbd cf5c 9abe
00000040: 269e c23e 0a62 0ebe d285 0f3e 3fa8 28bd
00000050: b796 953e a90a ad3e d9c2 4a3e 0a37 3fbe
00000060: 196a cb3d 55e3 03bf 257d 82bd 50a3 913e
00000070: 582b 55be 0fbb 8cbe 1ae6 56be 96b4 a83d
00000080: a7ef 9ebe e060 733e 814d ae3d 5517 99be
00000090: b26a e4bc 9cba f03e 6247 e6bd 3109 a2be
000000a0: a693 f33e 07d6 f13d 4448 43be ef0b 19be
000000b0: 95c2 b2bd 5637 9dbe 80f8 99be 051e 2fbe
000000c0: 99cb 113d 1bb0 8f3d d4c4 f33e 78cb 973d
000000d0: 804d e73e 4448 023e 9cdf 263c 9e65 1e3d
000000e0: de0e fabd 5226 923d 85f5 b93e 7750 64be
000000f0: eb62 233e f65e 093e a025 ffbd df9e 653d
00000100: f62a 843e 05ba a53e c0d6 793e dcc1 713e
00000110: 88a8 c73e acba f83e bb3c 793e e802 8f3e
00000120: 3aae 3a3e 5bd6 50bd 1224 aa3d b9be 1f3e
00000130: e7a9 0fbe 2dcf 37be e959 43be 0d14 a83d
00000140: 2c77 343e 0f65 4d3e b36d ae3e 2226 033f
00000150: aa59 783d 7afb ae3d d3ca c4bd 5405 8f3e
00000160: 6421 50be adf1 953e 2de0 0f3f 8d97 3e3d
00000170: 04c0 863d e172 4b3e 1456 2bbd 8340 e2bd
00000180: 8d87 bebe 494f af3d e8ad 90bb 0794 863e
00000190: a71c 7dbd e187 48bb 00e3 a43c 8444 d53c
000001a0: dbb4 823e 4b08 973d 76d6 083e fae9 af3e
000001b0: 8656 8d3d f7df cabd 1e06 6dbe 35ff 8d3e
000001c0: 8a81 5a3e 46ef a93d f95d b2be a631 8dbe
000001d0: caef 1dbe 943b 95bc 8722 963e de75 9a3d
000001e0: ff67 bb3e 485f 0a3f 352a d63e 672d 03be
000001f0: 229f 5cbd 4be6 633d 938f c33e 547e 953e
