model/0525_dog_0.81.5_3.pth (torch, 135117 bytes, 93 tensors)

init_conv.weight f4 [16, 2, 3, 3]
0	0x3dd8146d	0.10550771
1	0x3de02a4a	0.10945566
2	0xbd21bae5	-0.039484877
3	0x3cb9c69a	0.022677708
4	0x3e5c8c33	0.21537857
5	0x3e1706d8	0.14748704
6	0xbd19f010	-0.037582457
7	0x3e33c3d7	0.17555176
8	0xbd044162	-0.032288916
9	0x3e4a8259	0.19776286
10	0x3d8c4a45	0.06850103
11	0xbde17587	-0.11008745
12	0xbd552c86	-0.052044414
13	0xbe0d843a	-0.13819972
14	0xbdfe3500	-0.12412453
15	0xbdf2f2d7	-0.11862724
16	0xbe27ad43	-0.16374688
17	0x3e28aec1	0.16472913
18	0x3cef53cc	0.029214762
19	0x3e85ed26	0.26157492
20	0xbce86b62	-0.028371517
21	0xbdeb260d	-0.11481867
22	0x3e4fa008	0.20275891
23	0x3e29f40f	0.16597007
24	0xbdff54c0	-0.12467337
25	0x3b300eb1	0.0026864226
26	0xbe83d419	-0.25747755
27	0x39257e36	0.00015782643
28	0xbe049484	-0.12947279
29	0x3d66a020	0.05630505
30	0xbe1a805c	-0.15088028
31	0xbd403f74	-0.046935514
32	0x3e508b87	0.20365725
33	0xbe1d33a4	-0.1535173
34	0xbd1f71fb	-0.03892706
35	0xbd0ed599	-0.03487167
36	0xbd4cf11c	-0.050034627
37	0xbd3fd899	-0.046837423
38	0x3d455597	0.048177328
39	0x3dcc42f4	0.09973708
40	0xbda8fa70	-0.08250892
41	0x3d0f029c	0.034914598
42	0xbe4ea01f	-0.20178269
43	0xbe951244	-0.29115498
44	0xbe5e3038	-0.21698081
45	0x3cc9f035	0.024650672
46	0x3e34c8c1	0.17654707
47	0xbdd8549d	-0.10563014
48	0x3e0555b7	0.13020979
49	0xbc6e4b9a	-0.014544392
50	0xbe3c2740	-0.18374348
51	0xbd7ad06b	-0.06123392
52	0x3de5be6e	0.11217962
53	0x3e371e73	0.17882709
54	0x3d90af19	0.07064647
55	0xbe66b9da	-0.22531834
56	0xbe0ee46a	-0.1395432
57	0x3c06a87a	0.008218879
58	0x3da961dd	0.08270619
59	0xbbcabc6d	-0.006187013
60	0xbd8b259e	-0.06794284
61	0x3e9678a9	0.2938893
62	0xbbba936e	-0.0056938445
63	0xbd04eab8	-0.032450408
64	0xbd43e894	-0.047829226
65	0xbe3bc081	-0.18335153
66	0x3e20422b	0.15650241
67	0x3dd62e15	0.10458008
68	0xbe9a5d78	-0.30149436
69	0xbda83651	-0.08213485
70	0x3e87be6b	0.26512465
71	0x3d42124d	0.047380734
72	0x3e47698f	0.19473861
73	0x3d6ad6b0	0.05733365
74	0xbe6211f8	-0.22077167
75	0xbe97bca6	-0.29636115
76	0x3e36e90e	0.17862341
77	0xbe8fd1d8	-0.28089786
78	0x3ca7c26d	0.020478452
79	0x3e515467	0.20442353
80	0x3db01151	0.08597053
81	0x3e21728e	0.15766355
82	0x3e092d7d	0.13396259
83	0x3e18c226	0.14917812
84	0xbd87e50e	-0.066354856
85	0xbd94288b	-0.072342955
86	0xbe3f8551	-0.187032
87	0xbe9ec420	-0.31009007
88	0x3e1b12e4	0.15143925
89	0x3ce4baf8	0.027921185
90	0xbe27ce5a	-0.1638731
91	0x3d8ac0d1	0.06775058
92	0x3da18628	0.078869164
93	0xbe82059b	-0.25394902
94	0x3e930ffe	0.2872314
95	0x3e6ae14f	0.22937511
96	0xbd914fc1	-0.0709529
97	0xbc51b1f0	-0.012798771
98	0x3d1d1200	0.038347244
99	0x3d87bf64	0.06628302
100	0x3da3f474	0.0800561
101	0xbdf0dc24	-0.117607385
102	0xbdb2640c	-0.08710489
103	0xbda48255	-0.08032671
104	0xbe195df5	-0.14977248
105	0x3e845593	0.25846538
106	0xbe1ab106	-0.15106592
107	0x3e2763c3	0.1634665
108	0x3e2647ab	0.16238277
109	0xbe5872e2	-0.21137574
110	0xbdddada5	-0.10824136
111	0x3e309557	0.17244469
112	0xbdb01661	-0.085980184
113	0xbda5da44	-0.080982715
114	0x3e8abf7a	0.2709921
115	0xbc62d4b3	-0.013844657
116	0xbe11c288	-0.14234364
117	0x3ce79fa6	0.028274368
118	0xbdc7c021	-0.097534426
119	0x3db640ec	0.088991016
120	0xbe7fda60	-0.24985647
121	0xbe862549	-0.2620032
122	0xbe846ce5	-0.2586433
123	0x3e40d096	0.18829569
124	0x3e6f34db	0.23360007
125	0x3e5e1316	0.21686968
126	0x3e82a817	0.25518867
127	0x3e068707	0.13137446
128	0x3ddc92bd	0.107701756
129	0xbd6c7ebc	-0.05773805
130	0x3d96d76e	0.07365309
131	0x3e324023	0.17407279
132	0xbddb7504	-0.10715678
133	0xbd7646d7	-0.060126152
134	0xbd9f3b53	-0.07774987
135	0xbdd35852	-0.1031958
136	0x3d7c50ca	0.061600484
137	0x3b9b6471	0.004742198
138	0x3e27ef6b	0.16399924
139	0xbe429189	-0.1900083
140	0xbe12c241	-0.14331914
141	0xbe44b9ee	-0.19211552
142	0x3dfe10ac	0.12405524
143	0x3e6c2232	0.2305992
144	0x3e7d097f	0.24710654
145	0x3e2f0d4c	0.17094916
146	0x3d966fa2	0.07345511
147	0x3d21cd0f	0.0395022
148	0xbda8a6eb	-0.08234962
149	0xbda4b54f	-0.08042394
150	0x3c64cb76	0.0139645245
151	0x3cf024b7	0.029314382
152	0xbe0dbf68	-0.13842547
153	0x3ea80f62	0.32824236
154	0xbdd77f2d	-0.10522304
155	0xbe230afb	-0.15922157
156	0x3a7f122e	0.0009730187
157	0xbdcffd59	-0.10155744
158	0xbdcd516d	-0.10025296
159	0xbd9c5eed	-0.07635293
160	0x3e080136	0.13281712
161	0xbded80e0	-0.115968466
162	0xbc870e43	-0.016486293
163	0xbe303119	-0.1720623
164	0x3cda4aa3	0.026646918
165	0xbdaff292	-0.085911885
166	0xbe258a38	-0.16166008
167	0xbe4c8830	-0.19973826
168	0xbdd3e498	-0.10346335
169	0x3e5c130b	0.2149164
170	0x3e4c23c2	0.19935516
171	0xbe0d91c0	-0.1382513
172	0xbe736d40	-0.23772144
173	0xbdf96e45	-0.12179235
174	0x3e34965d	0.17635484
175	0xbe35ed41	-0.17766286
176	0x3dcbc6e7	0.09950047
177	0x3e09b810	0.1344912
178	0xbda0c63e	-0.07850312
179	0x3e1c8ac0	0.15287304
180	0x3d3da433	0.04629917
181	0x3daca9a2	0.084307924
182	0x3e625f76	0.22106728
183	0x3ddd8bce	0.10817681
184	0x3c6ae24d	0.014336181
185	0xbdf89e6a	-0.1213959
186	0x3e2a7c32	0.16648939
187	0xbebe24aa	-0.37137347
188	0xbe0cb9cd	-0.13742752
189	0x3de4ba39	0.11168332
190	0x3e482dd3	0.1954873
191	0x3d9b7458	0.0759055
192	0x3d985b6a	0.07439311
193	0xbe27b0ad	-0.1637599
194	0xbb8509b6	-0.0040599955
195	0x3e57245c	0.21009964
196	0x3e145799	0.14486541
197	0xbe3fde7e	-0.18737218
198	0x3e38a0ee	0.1803014
199	0xbe249192	-0.16071156
200	0xbd90f3d6	-0.07077758
201	0xbe6d3188	-0.23163426
202	0xbdd7f390	-0.10544503
203	0x3e932645	0.28740135
204	0x3e06a732	0.13149717
205	0xbc95886b	-0.018253526
206	0xbc93500c	-0.017982505
207	0x3e276d05	0.16350181
208	0xbd66b307	-0.056323078
209	0x3d521140	0.051285982
210	0xbe190255	-0.14942296
211	0xbc4d6076	-0.012535205
212	0x3e905dc7	0.28196546
213	0xbd8ead93	-0.069667004
214	0xbe4230d4	-0.18963939
215	0x3ddea554	0.108713776
216	0x3d5bc099	0.053650472
217	0x3dbd5c3d	0.09246109
218	0x3cb340cd	0.021881485
219	0xbda0b363	-0.07846715
220	0xbd2180e8	-0.039429575
221	0xbcf3e3e4	-0.029771753
222	0x3ccb2b58	0.024800941
223	0x3e343190	0.17597032
224	0x3e469a97	0.19394909
225	0x3dccc2d2	0.099980965
226	0x3e3c1c06	0.18370065
227	0xbdc890fd	-0.09793279
228	0xbe333837	-0.17501913
229	0x3e8a7414	0.27041686
230	0x3e81c5eb	0.25346312
231	0xbd7294b7	-0.059223857
232	0xbd67457f	-0.05646276
233	0x3da32411	0.079658635
234	0x3e236836	0.15957722
235	0xbe9e3194	-0.308972
236	0x3dbb13c2	0.09134628
237	0xbe562937	-0.2091416
238	0xbe11f0a3	-0.14251952
239	0x3dd1014f	0.10205328
240	0x3dd78e39	0.10525174
241	0x3e1f54a3	0.1555963
242	0x3e33fb3c	0.17576307
243	0xbd8b366a	-0.06797488
244	0xbd08d9f4	-0.03341098
245	0x3e3d5c66	0.18492278
246	0x3cf045ea	0.029330213
247	0x3db3b30d	0.087743856
248	0x3e606a22	0.21915486
249	0xbe00f70a	-0.12594238
250	0xbe58d299	-0.21174087
251	0xbe1a93a5	-0.15095384
252	0x3ce85539	0.02836095
253	0x3e903854	0.28167975
254	0x3d276dcc	0.040876195
255	0xbe17747b	-0.14790528

enc1.bottleneck.0.weight f4 [16, 16, 1, 1]
0	0x3e1b144e	0.15144464
1	0xbdce73ec	-0.10080704
2	0xbe1b1725	-0.15145548
3	0x3db80367	0.08985024
4	0xbe89ee73	-0.26939735
5	0x3b81fbdf	0.003966793
6	0x3c53a945	0.012918775
7	0x3e2a4df3	0.16631298
8	0x3cac7ca8	0.021055534
9	0x3e3043a8	0.17213309
10	0xbe1606d5	-0.14651044
11	0x3da73d2d	0.08165965
12	0xbe673aa0	-0.22580957
13	0xbc2aeb21	-0.010432036
14	0xbe4314f2	-0.19050959
15	0x3e50b296	0.20380625
16	0x3ddbbc59	0.10729284
17	0x3e72fd51	0.23729445
18	0x3debd655	0.1151549
19	0xbe1fe9be	-0.1561651
20	0x3e4fe9ed	0.2030408
21	0xbee45b37	-0.4460084
22	0xbee20aff	-0.44149014
23	0xbdf55b18	-0.119802654
24	0x3e3ca65c	0.18422836
25	0xbe3135c7	-0.1730567
26	0xbddf18d0	-0.108934045
27	0x3e66314a	0.2247974
28	0xbd8689ca	-0.0656925
29	0x3e72a833	0.23696975
30	0xbd95ffff	-0.07324218
31	0x3d4565dc	0.048192844
32	0x3e0f3ddd	0.13988443
33	0xbdb0a4c2	-0.08625175
34	0x3e65d1c9	0.22443308
35	0xbdc696f9	-0.096967645
36	0xbe797e70	-0.24364638
37	0xbe8675bf	-0.26261708
38	0x3c5e1fd1	0.01355739
39	0xbd8d038f	-0.068854444
40	0xbde0e033	-0.109802626
41	0x3ea735c3	0.32658204
42	0x3bf68013	0.007522592
43	0x3e3559e4	0.17710072
44	0x3d313f53	0.04327328
45	0x3e56d111	0.2097819
46	0xbc85d81c	-0.0163384
47	0x3daf267c	0.08552262
48	0x3e45f674	0.19332296
49	0x3d16a143	0.036774885
50	0x3db85339	0.090002485
51	0xbe83acea	-0.2571786
52	0x3eaac279	0.33351496
53	0xbe684622	-0.22683004
54	0x3e5a8bc6	0.21342382
55	0x3c87b78e	0.016567018
56	0xbdf7b44b	-0.12094935
57	0x3e6e7f2e	0.23290703
58	0x3e057d17	0.13035999
59	0x3e3d7d57	0.18504845
60	0x3b31c40d	0.0027124912
61	0x3e26afb2	0.1627796
62	0x3e336de0	0.17522383
63	0xbbe1f719	-0.0068959114
64	0xbe41db8e	-0.1893141
65	0xbd5c7ae5	-0.05382814
66	0x3e3eeed3	0.18645792
67	0x3dc79122	0.09744479
68	0xbe3699b7	-0.17832075
69	0x3e4ca234	0.1998375
70	0xbe40ea2c	-0.1883933
71	0xbd13bab8	-0.03606674
72	0x3e2b630a	0.16736999
73	0xbde44c7c	-0.11147401
74	0x3e1dc59c	0.15407413
75	0xbd0df2e6	-0.034655474
76	0xbe0345a5	-0.12819536
77	0xbe4d5a89	-0.20054068
78	0x3d4e8ba7	0.05042615
79	0xbe484507	-0.19557582
80	0xbd682899	-0.056679342
81	0x3ddbe03d	0.107361294
82	0xbe30db70	-0.17271209
83	0x3ea47cc1	0.3212643
84	0xbea13bf7	-0.31491062
85	0xbd2d9af0	-0.042384088
86	0x3b3bc9ec	0.002865429
87	0xbe02df21	-0.1278043
88	0xbe9cecf4	-0.3064953
89	0x3e762fd5	0.24041684
90	0xbdd6eaeb	-0.10494026
91	0xbdb622b0	-0.08893335
92	0x3e834956	0.25641888
93	0x3e40612a	0.18787065
94	0x3d6c6b75	0.057719667
95	0xbe211672	-0.15731218
96	0x3e8a822d	0.2705244
97	0xbc6786e2	-0.01413128
98	0x3dca1ce4	0.09868792
99	0x3ecf6d65	0.4051315
100	0xbdf31294	-0.11868778
101	0x3e479b85	0.1949292
102	0xbd5afaf3	-0.05346198
103	0x3e89a907	0.2688677
104	0xbc40a0e7	-0.011757112
105	0xbd450864	-0.048103705
106	0x3e07ae9d	0.13250203
107	0xbebec9d9	-0.37263373
108	0xbdcb6d41	-0.09932948
109	0xbd0cf0e3	-0.034409415
110	0x3e7fa5fd	0.24965663
111	0xbe2e3763	-0.17013316
112	0xbdfec415	-0.124397434
113	0xbe54b667	-0.20772706
114	0x3e679e56	0.22618994
115	0xbce3d53a	-0.027811635
116	0x3e1a575a	0.15072384
117	0xbec98a6c	-0.3936342
118	0x3e6ad342	0.22932151
119	0xbe969979	-0.29413965
120	0xbe09d458	-0.13459909
121	0x3e5fab3b	0.21842663
122	0xbd71b74f	-0.059012707
123	0xbd9c86cb	-0.07642897
124	0x3ddaefb3	0.1069025
125	0x3d00e0fd	0.031464566
126	0x3e6103f6	0.21974167
127	0xbc92c8e5	-0.01791806
128	0xbe612c26	-0.21989498
129	0x3d16f9e5	0.03685941
130	0x3ea38378	0.3193624
131	0x3e4a15f6	0.1973494
132	0x3dbda901	0.092607506
133	0x3d833fdb	0.06408664
134	0x3ea3505c	0.31897247
135	0xbea90916	-0.33014745
136	0xbdcd25e6	-0.10016994
137	0xbe0fe6b1	-0.14052846
138	0xbca8c082	-0.020599607
139	0xbc9f101b	-0.01941686
140	0xbd164e81	-0.03669596
141	0x3e3bdb6c	0.18345422
142	0x3e551d2d	0.20811911
143	0xbe0bb95c	-0.13644928
144	0xbde8b192	-0.11361994
145	0x3e882b07	0.26595327
146	0x3dd8af0b	0.10580262
147	0xbe031ce1	-0.12803985
148	0x3e0e7a34	0.13913804
149	0x3ddb9247	0.107212596
150	0x3e9191b9	0.2843149
151	0xbdd54107	-0.104127936
152	0x3e600aa5	0.2187906
153	0xbdb1e7fe	-0.08686827
154	0x3d9db237	0.077000074
155	0xbeb8b4a6	-0.36075324
156	0x3d87ad07	0.06624799
157	0xbe8f97db	-0.28045544
158	0x3e0b5bf2	0.13609293
159	0xbd103afa	-0.035212494
160	0x3e8b1a13	0.2716833
161	0xbdc5c742	-0.09657146
162	0x3d95526f	0.072911136
163	0xbe0bda8f	-0.13657592
164	0xbdd33c67	-0.10314255
165	0xbc96e1ce	-0.018418219
166	0x3eaf3483	0.3421975
167	0x3b8970af	0.004194341
168	0xbe2220cb	-0.15832822
169	0x3e9acb15	0.30233064
170	0x3dd00e54	0.10158983
171	0x3be0708c	0.006849354
172	0x3d861709	0.06547362
173	0x3ddb10a2	0.10696532
174	0x3d663b29	0.056208763
175	0xbea211be	-0.3165416
176	0xbe891ae1	-0.2677832
177	0x3dfeb7e2	0.124374166
178	0x3cb08782	0.02154899
179	0x3e66b07f	0.22528265
180	0x3e1e2a9f	0.15445946
181	0xbe6bfa8c	-0.23044795
182	0xbe68d595	-0.22737725
183	0x3e2a4e82	0.16631511
184	0x3dcb9094	0.099396855
185	0xbe4d0fec	-0.20025605
186	0x3e59452a	0.2121779
187	0xbe103172	-0.14081362
188	0x3e8ec76d	0.27886525
189	0x3de4819f	0.11157536
190	0x3b71b7a0	0.003688313
191	0xbdd0d0cd	-0.101960756
192	0xbe58c1dc	-0.21167701
193	0xbe1eb03d	-0.15496917
194	0xbe0ba473	-0.13636951
195	0xbe29ae7d	-0.16570468
196	0x3d35d595	0.04439314
197	0xbe19f1ea	-0.15033689
198	0x3e3361b3	0.17517738
199	0x3e80e057	0.25171158
200	0x3e9add3d	0.30246916
201	0x3e4ea4b9	0.20180024
202	0x3e58eb5d	0.21183534
203	0x3e0da1be	0.13831231
204	0xbe2d5dae	-0.16930267
205	0xbddc8c70	-0.10768974
206	0x3d482db4	0.04887171
207	0xbe799fe0	-0.24377394
208	0x3d6a1555	0.05714925
209	0xbeb111af	-0.34583804
210	0x3d71b177	0.059007134
211	0xbd5783ff	-0.052616116
212	0x3d751012	0.05982978
213	0x3e443156	0.19159445
214	0x3d688518	0.056767553
215	0x3eaa6af7	0.33284733
216	0x3debb4ee	0.11509119
217	0x3d6b1b1e	0.057398908
218	0x3daa524f	0.0831648
219	0xbd2d5022	-0.04231275
220	0xbd0fab0c	-0.035075232
221	0xbdad6acc	-0.084676355
222	0xbe7a274e	-0.24429056
223	0xbe3993ec	-0.18122834
224	0xbe4ef345	-0.20209987
225	0x3da4182b	0.08012422
226	0x3e090b03	0.13383107
227	0x3e23ab58	0.15983331
228	0x3da10d82	0.078639045
229	0xbee09981	-0.43867114
230	0x3ddfd1e0	0.10928702
231	0xbc6d8bae	-0.014498634
232	0x3d8fc1cc	0.07019386
233	0xbbf63af0	-0.00751435
234	0x3b66bc24	0.0035207355
235	0xbb3f98f5	-0.0029235457
236	0xbe0ded37	-0.13860022
237	0xbbd93a29	-0.0066292477
238	0x3e2f82ae	0.17139694
239	0x3d4ba028	0.049713284
240	0xbe6d7e24	-0.2319265
241	0x3e2faf5b	0.17156737
242	0x3ce800fa	0.028320778
243	0x3e3455f4	0.17610914
244	0xbdb732c6	-0.08945231
245	0xbb7ba117	-0.0038395578
246	0x3eb0e8cf	0.3455262
247	0x3da16e34	0.07882348
248	0x3cade166	0.021225642
249	0xbade38b9	-0.001695416
250	0xbe043d31	-0.12913968
251	0xbd98b4d3	-0.074563645
252	0x3e6a9790	0.22909379
253	0xbe540f4a	-0.20708957
254	0xbe883b94	-0.26607955
255	0x3e7249bd	0.23660941

enc1.bottleneck.1.weight f4 [16]
0	0x3fb79010	1.4340839
1	0x3f8f1568	1.1178408
2	0x3fc237aa	1.5173237
3	0x3f9faaa3	1.2473949
4	0x3f7d8f46	0.9904674
5	0x3f891370	1.0709057
6	0x3f9c351c	1.2203708
7	0x3fb398b7	1.403098
8	0x3f368849	0.71301705
9	0x3f9f603a	1.2451241
10	0x3f9e112b	1.2348989
11	0x3fa154a3	1.2603954
12	0x3faeb7be	1.3649824
13	0x3f51e422	0.8198873
14	0x3f846760	1.0344048
15	0x3faeb64d	1.3649384

enc1.bottleneck.1.bias f4 [16]
0	0x3df249c8	0.11830479
1	0xbc5bf62b	-0.01342539
2	0x3e8f1156	0.27942914
3	0xbbacc3df	-0.005272373
4	0xba4f8934	-0.0007916868
5	0x3d437853	0.047722172
6	0x3e0408a1	0.12893917
7	0xbe87afba	-0.26501256
8	0x3d823a8a	0.06358822
9	0xbda91bbc	-0.08257243
10	0xbe502ea1	-0.20330288
11	0x3f0c994e	0.54921424
12	0xbe707d36	-0.23485264
13	0xbd00c0c0	-0.03143382
14	0x3ed7aba8	0.4212315
15	0x3e806d17	0.2508323

enc1.bottleneck.1.running_mean f4 [16]
0	0x3c888043	0.016662722
1	0x3b5f06f6	0.0034031249
2	0x3c3041ff	0.010757922
3	0xbd212517	-0.039342012
4	0xbcf10fc1	-0.029426457
5	0xbd13e3ba	-0.03610585
6	0xbda58caa	-0.0808347
7	0xbd6aa503	-0.057286274
8	0xbda98353	-0.08277001
9	0xbd34bbdb	-0.044124465
10	0xbd828952	-0.06373848
11	0x3d60552d	0.05476873
12	0xbd690543	-0.056889784
13	0x3d34f52f	0.044179138
14	0xbd83925e	-0.06424402
15	0x3dbc0ac1	0.09181739

enc1.bottleneck.1.running_var f4 [16]
0	0x3a1b7d6d	0.00059314707
1	0x3a7879b7	0.0009478586
2	0x3a762f91	0.0009391243
3	0x3a8ca1a6	0.0010729327
4	0x3a5a3d3e	0.0008325166
5	0x3a92e51d	0.0011207197
6	0x3bf4b0a0	0.0074673444
7	0x3b103b83	0.0022008128
8	0x3b459b09	0.0030152223
9	0x3aacb1ba	0.0013175525
10	0x3b2c40a2	0.0026283641
11	0x3b135064	0.0022478336
12	0x3af45d44	0.0018643518
13	0x3a994211	0.0011692663
14	0x3aeb10bb	0.0017934063
15	0x3bd01e6b	0.0063512824

enc1.fuse.est.mlp.0.weight f4 [16, 2]
0	0xbdbd1448	-0.09232384
1	0xbedd35eb	-0.432052
2	0x3eabc9f6	0.3355252
3	0xbf0c7786	-0.5486988
4	0xbe41469c	-0.18874592
5	0x3de4f660	0.11179805
6	0xbd1ca733	-0.03824539
7	0x3ebd81e1	0.37013152
8	0x3f303e67	0.6884522
9	0x3f0ba9ba	0.5455586
10	0x3ef5fb7a	0.48043424
11	0x3ece8ada	0.4034031
12	0x3eb708cd	0.35748902
13	0x3f3b66ce	0.7320374
14	0x3f44198f	0.766015
15	0xbe26cdd7	-0.16289459
16	0xbf22987b	-0.63513917
17	0xbd6d3450	-0.057911217
18	0x3f84a72f	1.036352
19	0x3f6e2b80	0.93035126
20	0x3e1bb79b	0.15206759
21	0x3e7197d5	0.23593076
22	0xbec016fd	-0.3751754
23	0x3e2db098	0.16961896
24	0xbe7d480e	-0.24734518
25	0xbf2cbd56	-0.67476404
26	0xbd810dce	-0.06301461
27	0xbf192bf2	-0.5983268
28	0x3f6e2bea	0.9303576
29	0x3f4bcf43	0.7961313
30	0xbd2bb7f0	-0.041923463
31	0x3ded9ce0	0.11602187

enc1.fuse.est.mlp.0.bias f4 [16]
0	0xbf060ea3	-0.52366084
1	0xbecbb002	-0.3978272
2	0xbf30b03f	-0.6901893
3	0x3ea8cc0e	0.3296818
4	0x3eebf969	0.46088722
5	0xbf09177b	-0.53551453
6	0x3f1257ba	0.5716511
7	0xbb1d27a8	-0.0023979936
8	0xbeedeae0	-0.46468258
9	0xbdd6d1e2	-0.10489251
10	0x3e49126a	0.1963593
11	0x3d9a4caa	0.07534154
12	0x3e7a2544	0.24428278
13	0x3e17b145	0.14813717
14	0x3f058589	0.52156883
15	0xbecddd0b	-0.40207705

enc1.fuse.est.mlp.2.weight f4 [1, 16]
0	0x3d65f9b8	0.056146353
1	0xbde5c77c	-0.11219689
2	0xbde21d78	-0.11040777
3	0x3cc8366e	0.024440017
4	0xbdbff34a	-0.093725756
5	0xbe24c4d9	-0.16090716
6	0xbdcfeba5	-0.101523675
7	0xbe3d60c1	-0.1849394
8	0xbe7932e8	-0.24335825
9	0xbec0942b	-0.37613043
10	0x3d05d073	0.032669496
11	0x3e7453c8	0.23860085
12	0x3ef12a97	0.47102806
13	0x3eaa6f76	0.33288163
14	0xbe24f4c1	-0.16108991
15	0x3e2f336e	0.17109463

enc1.eca.conv.weight f4 [1, 1, 5]
0	0x3d612e43	0.05497576
1	0x3f5f156a	0.8714205
2	0x3e3779e8	0.17917597
3	0x3d8b1c44	0.067925006
4	0xbe265d6b	-0.16246574

enc1.ca.conv1.weight f4 [8, 16, 1, 1]
0	0xbcd6873e	-0.026187535
1	0x3e06b285	0.13154037
2	0xbcac7e40	-0.021056294
3	0x3c14f29b	0.009091045
4	0xbdf1b2e1	-0.118016966
5	0xbeef71a3	-0.46766385
6	0x3e516447	0.20448409
7	0x3d726a31	0.059183303
8	0x3cd1d822	0.025615755
9	0x3e3237c0	0.1740408
10	0xbef5c1c1	-0.47999385
11	0x3e1e1804	0.15438849
12	0x3d96d67a	0.07365127
13	0x3d2f4922	0.042794354
14	0x3c87f765	0.01659746
15	0xbe1addb3	-0.15123634
16	0x3d19aee8	0.03752032
17	0xbe68bbd0	-0.22727895
18	0xbeaf7ed8	-0.34276462
19	0xbda5736c	-0.080786556
20	0x3d0e1b30	0.034693897
21	0xbe85ba13	-0.26118526
22	0xbe6d9a3b	-0.23203366
23	0x3ef79e5b	0.48363003
24	0xbb020463	-0.001983904
25	0x3e858a1b	0.2608193
26	0x3d920576	0.07129948
27	0xbd438173	-0.047730874
28	0xbe82a75e	-0.25518316
29	0xbe297b16	-0.1655086
30	0x3d051442	0.032490022
31	0xbdb60cd8	-0.088891685
32	0x3e76e72b	0.24111621
33	0xbe4a6829	-0.19766296
34	0xbdf17922	-0.117906824
35	0x3bddef87	0.0067729387
36	0xbcff519f	-0.03116685
37	0x3e8e68a6	0.27814215
38	0xbdd1b182	-0.10238935
39	0x3e211d6b	0.15733878
40	0xbcf99de2	-0.030470792
41	0x3e0efbec	0.13963288
42	0x3e5a3049	0.21307482
43	0x3d9235a8	0.0713914
44	0x3e719146	0.23590574
45	0xbde5a172	-0.11212434
46	0xbdabf504	-0.083963424
47	0xbe661555	-0.22469075
48	0xbe45dd02	-0.19322589
49	0xbdb15493	-0.086587094
50	0x3df8326f	0.121189944
51	0x3ea03309	0.31288937
52	0xbd403ec8	-0.046934873
53	0x3e3b21fa	0.1827468
54	0xbd467f3b	-0.04846118
55	0x3d085e34	0.033292964
56	0x3e4a7538	0.19771278
57	0x3cf2dd9c	0.029646687
58	0x3df77569	0.12082941
59	0xbcf30592	-0.029665742
60	0x3e8b20e9	0.27173546
61	0x3d5a9594	0.053365305
62	0xbe2dd5ea	-0.16976133
63	0xbd901ead	-0.07037101
64	0x3e2789be	0.16361138
65	0xbdaaf95d	-0.083483435
66	0x3dcad858	0.099045455
67	0xbefe836a	-0.49709636
68	0x3e8a8dd1	0.27061322
69	0xbe0fe1d1	-0.14050986
70	0xbee126f7	-0.4397504
71	0xbdd59505	-0.10428814
72	0x3ca56190	0.020188123
73	0xbe1cfeb9	-0.15331544
74	0xbef89eb0	-0.4855857
75	0xbd9fd2c8	-0.07803875
76	0xbe21d604	-0.15804297
77	0xbdef0d69	-0.1167248
78	0x3dd0f004	0.10202029
79	0x3dd5e6a9	0.104443856
80	0x3ea0e2ee	0.31423134
81	0x3da0d2b7	0.07852691
82	0xbdbd4981	-0.092425354
83	0xbb8819bc	-0.0041534584
84	0xbec161aa	-0.37769824
85	0xbe18b227	-0.1491171
86	0xbe54aa46	-0.20768079
87	0x3de13651	0.10996688
88	0xbe9b7d37	-0.3036897
89	0xbdd74c43	-0.10512593
90	0x3db8f8e0	0.09031844
91	0xbe4c14eb	-0.19929855
92	0xbded2132	-0.11578597
93	0xbd4d1605	-0.050069828
94	0xbe812701	-0.2522507
95	0xbe5d9c1f	-0.21641587
96	0x3d8ec233	0.06970634
97	0xbe411ec6	-0.18859395
98	0x3e2f8073	0.17138843
99	0x3eb66a74	0.35628092
100	0xbe780b7b	-0.2422313
101	0x3e331b3f	0.17490862
102	0x3d34b29b	0.044115644
103	0x3e24bd2d	0.1608779
104	0x3da539e5	0.08067683
105	0x3dfdbaaa	0.12389119
106	0xbd7502d9	-0.05981717
107	0xbe01d14a	-0.12677494
108	0x3f0252c8	0.50907564
109	0x3c1daea9	0.009624162
110	0xbdf6e4c9	-0.12055356
111	0xbc11f60d	-0.008908761
112	0x3cd6c8f2	0.026218865
113	0xbf005aba	-0.5013844
114	0x3da80dff	0.082057945
115	0x3d86c55e	0.065806136
116	0xbcaaa665	-0.020831296
117	0x3dcc0ec2	0.09963752
118	0xbd82a415	-0.063789524
119	0xbdb8d987	-0.09025865
120	0x3d38cd66	0.04511776
121	0xbca5a1cd	-0.020218754
122	0x3e7278ee	0.23678944
123	0x3e655779	0.2239665
124	0x3e66fe06	0.2255784
125	0xbdd53346	-0.1041017
126	0xbd4500fe	-0.04809665
127	0xbe494154	-0.19653827

enc1.ca.bn1.weight f4 [8]
0	0x3f6ddd0c	0.92915416
1	0x3f729fdf	0.94775194
2	0x3f8ca048	1.0986414
3	0x3f96ef93	1.1791862
4	0x3f79afed	0.97534066
5	0x3f748d86	0.9552845
6	0x3f8b0731	1.086157
7	0x3f8ffac2	1.12484

enc1.ca.bn1.bias f4 [8]
0	0x3e36bb6d	0.17844935
1	0x3e60b946	0.21945676
2	0x3e40012f	0.18750452
3	0x3e981d3f	0.29709813
4	0x3e4dd234	0.20099717
5	0x3edafbe8	0.42770314
6	0x3ed8b27a	0.42323667
7	0x3e984247	0.29738066

enc1.ca.bn1.running_mean f4 [8]
0	0xbc1e3d74	-0.009658206
1	0xbd9a158b	-0.0752364
2	0x3af09695	0.0018355424
3	0x3c55de98	0.013053559
4	0xbda6c664	-0.08143309
5	0xbe1dcc36	-0.15409932
6	0x3d1737be	0.036918394
7	0x3cb449c1	0.022007825

enc1.ca.bn1.running_var f4 [8]
0	0x3af4b68a	0.0018670124
1	0x3be0c2cf	0.0068591605
2	0x3c622ba5	0.013804351
3	0x3ba21748	0.004946623
4	0x3ca08d11	0.019598516
5	0x3bc95459	0.006144088
6	0x3c1c4c8f	0.009539737
7	0x3b2e6bb6	0.0026614494

enc1.ca.conv_h.weight f4 [16, 8, 1, 1]
0	0x3f089ad5	0.53361255
1	0xbd241db8	-0.040067405
2	0x3efd4384	0.49465573
3	0x3e67dd8f	0.22643112
4	0x3eb44567	0.352092
5	0x3ec7db21	0.3903437
6	0x3eec5cae	0.4616446
7	0x3edb539e	0.42837232
8	0x3e8a20cf	0.26978156
9	0xbcf7ed43	-0.030264502
10	0x3e53b87e	0.20675847
11	0xbe885147	-0.2662451
12	0xba23c386	-0.0006247092
13	0xbde00034	-0.10937539
14	0xbe6fbf8f	-0.23412918
15	0x3ef88ea3	0.48546323
16	0x3cac0f8a	0.021003503
17	0x3dd60826	0.10450773
18	0xbc02abd1	-0.007975535
19	0xbe9781c1	-0.29591182
20	0xbcee6d64	-0.029104896
21	0xbd5c33f1	-0.053760473
22	0xbecb05a4	-0.3965274
23	0xbe6685e9	-0.2251202
24	0x3ea355b5	0.31901327
25	0x3dc5f72b	0.09666284
26	0x3e724df6	0.23662552
27	0xbe3603d1	-0.17774893
28	0x3eddf1cf	0.43348548
29	0xbd255679	-0.04036567
30	0x3ea83ab0	0.32857275
31	0xbe90baaf	-0.28267428
32	0x3e1ed846	0.1551219
33	0xbd276d15	-0.040875513
34	0xbdabba36	-0.08385126
35	0x3ed387d7	0.41314575
36	0xbe101c1e	-0.14073226
37	0x3eb3596a	0.35029155
38	0x3c52b078	0.012859456
39	0xbd3c580c	-0.045982406
40	0x3d48bb60	0.04900682
41	0xbe739d56	-0.23790488
42	0xbe0616a0	-0.13094568
43	0x3e0d1e48	0.13781083
44	0xbe66a2a6	-0.22522983
45	0x3b02102e	0.001984607
46	0xbd413a80	-0.04717493
47	0x3e85f7b6	0.2616555
48	0xbe050e22	-0.12993672
49	0x3efa3f4d	0.4887642
50	0x3e6ffdd1	0.23436667
51	0x3eac33e5	0.33633342
52	0x3e85fe9a	0.26170808
53	0x3f1c07a2	0.60949147
54	0x3e6db238	0.23212516
55	0x3defe187	0.11712938
56	0xbe144b7f	-0.14481924
57	0xbee2b3b4	-0.44277728
58	0x3f31da7c	0.69474006
59	0x3f03d08f	0.5149011
60	0xbe5d846b	-0.21632545
61	0x3e7ca93b	0.24673931
62	0x3e571431	0.21003796
63	0x3df4bc0e	0.11949931
64	0x3e351d83	0.17687039
65	0x3d1db2b9	0.03850052
66	0x3d1a5240	0.037676096
67	0xbe9c3db2	-0.3051582
68	0xbe89a745	-0.2688543
69	0xbe166c84	-0.14689833
70	0x3e991de6	0.29905623
71	0x3db77b65	0.089590825
72	0xbc9031f2	-0.01760194
73	0xbe9e6dc6	-0.30943125
74	0x3e6e953d	0.23299117
75	0x3e965de7	0.29368517
76	0xbe9e4a8c	-0.3091625
77	0x3e71ebd1	0.23625113
78	0xbdbd9e80	-0.09258747
79	0x3eb20286	0.3476755
80	0xbbd06a31	-0.0063603153
81	0xbe267914	-0.16257125
82	0xbc5449c2	-0.012957038
83	0x3ee34f25	0.4439632
84	0xbebbc9c3	-0.3667737
85	0x3eb96656	0.3621089
86	0x3db39ae2	0.08769776
87	0x3ca1d979	0.01975702
88	0x3d3cf2ca	0.04612998
89	0xb9daf40c	-0.0004176203
90	0xbe525a83	-0.2054234
91	0x3cb78ab8	0.022405013
92	0x3d0c9486	0.03432133
93	0x3dfc9765	0.12333564
94	0x3e77cca6	0.24199161
95	0xbda34850	-0.07972777
96	0x3d15af3f	0.03654408
97	0xbd959189	-0.07303149
98	0xbd96444e	-0.07337247
99	0x3eef6129	0.46753815
100	0x3e8bca60	0.27302837
101	0x3eeb29b2	0.45930248
102	0x3eb92e20	0.36168003
103	0x3ec4ff58	0.38476062
104	0xbdaba3ec	-0.08380875
105	0x3d42c24f	0.04754859
106	0x3e38197c	0.17978472
107	0x3e796bda	0.24357548
108	0x3e1ec9f8	0.15506732
109	0x3ea18ecf	0.31554267
110	0x3c9d940f	0.019235639
111	0x3d33f2ae	0.04393261
112	0xbcf41e7b	-0.02979969
113	0x3ea1f150	0.3162942
114	0xbe575e85	-0.2103215
115	0x3e3af733	0.18258362
116	0xbe51544f	-0.20442317
117	0x3e24ea19	0.16104926
118	0x3e8c6dbc	0.2742747
119	0xbeb8d627	-0.36100885
120	0x3d8707c5	0.06593279
121	0x3b335d2d	0.002736877
122	0xbd4d6e10	-0.050153792
123	0x3ec73688	0.38908792
124	0x3ebab3a8	0.36465192
125	0x3ea2e330	0.31813955
126	0x3de6ef18	0.11276072
127	0xbb219e70	-0.0024661086

enc1.ca.conv_w.weight f4 [16, 8, 1, 1]
0	0x3f039da4	0.51412416
1	0xbdfe7509	-0.124246664
2	0x3ea51ba0	0.3224764
3	0x3e466c1a	0.19377175
4	0x3e5c52af	0.21515916
5	0x3e495a12	0.19663265
6	0x3ef6e961	0.4822493
7	0xbd8c20a8	-0.06842166
8	0xbd2affc5	-0.041747827
9	0xbdab7f3b	-0.08373877
10	0x3ec23cc2	0.3793698
11	0x3cb20f35	0.021735767
12	0xbe904aae	-0.28181976
13	0x3e0fa8d8	0.14029253
14	0xbe298467	-0.16554414
15	0x3dae0ddc	0.08498737
16	0xbb8690b7	-0.004106607
17	0x3d9facb0	0.077966094
18	0xbe80b9f2	-0.25141865
19	0xbe9f7bcd	-0.3114914
20	0xbd919391	-0.07108224
21	0xbdbe7821	-0.093002565
22	0xbdc67a9e	-0.09691356
23	0xbe1d49a5	-0.15360124
24	0x3e88caf4	0.2671734
25	0x3e5811a4	0.2110048
26	0xbdf76689	-0.12080104
27	0x3e87c76d	0.26519337
28	0x3ea08a93	0.31355724
29	0x3c8d4e7a	0.017249335
30	0xbe6ebf97	-0.23315273
31	0xbc4e0078	-0.012573354
32	0xbd2c69a3	-0.04209293
33	0x3e6ead74	0.23308355
34	0xbe57d072	-0.2107561
35	0x3e5356df	0.20638607
36	0x3cff7dd9	0.031187939
37	0x3c822a22	0.015889231
38	0x3e3c07a9	0.18362297
39	0xbb929380	-0.00447315
40	0x3dd8f79f	0.10594105
41	0xbe66a899	-0.22525252
42	0xbda2e7c1	-0.0795436
43	0x3e222b5e	0.15836856
44	0x3d97eb13	0.07417884
45	0x3dcd342d	0.10019717
46	0x3e8a4742	0.2700749
47	0xbe01d426	-0.12678584
48	0x3e28098f	0.16409896
49	0x3dfff479	0.12497801
50	0x3ead4b78	0.3384664
51	0x3d9afa1d	0.075672366
52	0x3ee182b8	0.44045043
53	0x3f029e04	0.5102236
54	0x3e584fd2	0.21124199
55	0x3e8279fd	0.25483695
56	0x3e5ecaf3	0.21757106
57	0x3e7082bc	0.23487371
58	0x3f0efb80	0.5585251
59	0x3f17ca50	0.5929308
60	0xbec66d84	-0.3875543
61	0x3e172f4c	0.14764136
62	0x3f49e8e2	0.78870976
63	0x3f240f37	0.64085716
64	0xbd6057b8	-0.054771155
65	0xbe8bb2c1	-0.27284816
66	0x3e7a6a1b	0.24454539
67	0x3ea2a38d	0.31765404
68	0xbf08fac5	-0.53507644
69	0xbd9396c4	-0.07206491
70	0xbe6c0e14	-0.23052245
71	0xbdbad0e3	-0.09121873
72	0xbeab9f29	-0.33519867
73	0xbeb3fda1	-0.3515444
74	0x3d9cc022	0.07653834
75	0x3e9bd1ce	0.30433506
76	0x3cd85f35	0.026412586
77	0x3edbf9d8	0.42964053
78	0xbd155cbb	-0.036465388
79	0x3eb31db3	0.34983596
80	0x3bf8067c	0.0075691324
81	0x3dae679b	0.08515855
82	0x3df81455	0.12113253
83	0x3eadb4be	0.33926958
84	0xbe62c6bc	-0.22146124
85	0x3ebbeb4d	0.36702958
86	0x3e398bbd	0.18119712
87	0x3d9f8ccb	0.07790526
88	0xbe19efa5	-0.15032823
89	0xbe724ef9	-0.23662938
90	0x3e9a3c39	0.3012407
91	0x3d44659d	0.04794847
92	0x3e442b9b	0.19157259
93	0x3d9c551b	0.0763342
94	0xbd9f08d2	-0.07765354
95	0x3cb61af4	0.02222965
96	0x3e3fd10a	0.18732086
97	0x3e740e2a	0.23833528
98	0x3d51fb31	0.051264945
99	0x3e0afc4f	0.1357281
100	0xbe0f8c53	-0.14018373
101	0x3e8eb236	0.2787034
102	0x3f06a241	0.5259133
103	0x3e4520be	0.19250771
104	0x3e71be41	0.23607732
105	0x3d702b3d	0.058634985
106	0xbe362369	-0.17786945
107	0xbd4c051e	-0.049809568
108	0xbb6408da	-0.0034795315
109	0x3e5ef48d	0.21772976
110	0xbe7a5476	-0.24446282
111	0x3dcc3c1b	0.09972402
112	0x3dce5080	0.10073948
113	0x3e80efbe	0.2518291
114	0x3e7b1d07	0.24522792
115	0x3db4400b	0.08801278
116	0xbcc06212	-0.023484264
117	0x3e52b7f4	0.20577985
118	0x3d7206a8	0.05908838
119	0xbe5685a9	-0.20949425
120	0x3e80b110	0.25135088
121	0x3e067e12	0.1313403
122	0xbe94685b	-0.28985867
123	0xbdf05db8	-0.117366254
124	0x3e3fada2	0.1871858
125	0x3e4728f5	0.19449218
126	0x3ea3316f	0.31873652
127	0x3e9eca98	0.31013942

down1.weight f4 [16, 16, 3, 3]
0	0xbd953b09	-0.07286651
1	0x3c86fb35	0.016477207
2	0xbc59d702	-0.013295891
3	0xbd3af656	-0.04564508
4	0xbdacffcf	-0.08447229
5	0xbda63172	-0.081149
6	0xbcf8a319	-0.030351209
7	0x3d853d96	0.06505887
8	0x3be95883	0.007121147
9	0xbc54e772	-0.012994634
10	0x3cd6b59b	0.026209643
11	0x3d676677	0.056494202
12	0xbd66d9b0	-0.056359947
13	0xbd1c85b6	-0.038213454
14	0xbce492af	-0.027901975
15	0x3cee696d	0.029103005
16	0xbd067600	-0.032827377
17	0xbdc56ffb	-0.09640499
18	0x3cc7467a	0.024325598
19	0xbd0622d1	-0.032748047
20	0x3d8d7e8d	0.06908903
21	0x3dc69942	0.096972
22	0x3d5b3054	0.053512886
23	0x3d51faae	0.051264457
24	0x3d40818c	0.046998546
25	0xbbea9e6d	-0.007159999
26	0xbddbc3fd	-0.10730741
27	0xbd4340cd	-0.04766922
28	0xbdecc053	-0.115601204
29	0x3d7dbef7	0.061949696
30	0x3dc0afed	0.09408555
31	0xbd69ad8b	-0.05705027
32	0xbe50f732	-0.20406798
33	0x3dcfb94f	0.10142767
34	0x3de57be3	0.1120527
35	0x3d8cf4a2	0.068825975
36	0xbe049fb9	-0.12951554
37	0xbe772415	-0.24134858
38	0xbe1729f4	-0.14762098
39	0xbd0d5e18	-0.034513563
40	0x3dc368f0	0.095414996
41	0x3d2fbf9d	0.042907346
42	0x3b712b80	0.003679961
43	0x3d9ecf5f	0.07754397
44	0x3b9847e8	0.004647244
45	0xbc53cedb	-0.012927736
46	0xbdbdf1e2	-0.09274651
47	0xbd8f1384	-0.06986144
48	0x3d9f8cc4	0.07790521
49	0x3ddeca4b	0.10878428
50	0x3d9cf8c6	0.07664637
51	0x3e30fc85	0.17283829
52	0xbc285cbf	-0.010276019
53	0x3d22e8c0	0.03977275
54	0xbe32aca1	-0.17448665
55	0xbea21f8e	-0.316647
56	0xbecde423	-0.40213117
57	0x3d9c02a8	0.07617694
58	0x3cc96d22	0.024588171
59	0xbc149a53	-0.009069997
60	0x3e10642e	0.14100716
61	0x3dd75d7b	0.10515877
62	0x3d8be48d	0.06830702
63	0xbd477575	-0.048696
64	0x3d338742	0.043830164
65	0xbce5b188	-0.028038755
66	0xbcf6895b	-0.030094793
67	0xbd6877bd	-0.056754816
68	0x3cebe11c	0.028793864
69	0xbdb65997	-0.08903807
70	0xbdb13baa	-0.08653958
71	0xbde9b0c4	-0.114106685
72	0xbcb30053	-0.02185074
73	0x3db96c7f	0.09053897
74	0x3dfe8115	0.12426964
75	0x3dee5664	0.116375715
76	0x3d7a6b74	0.06113763
77	0xbcb6029b	-0.02221804
78	0x3d0c5668	0.03426209
79	0xbbe9ca4b	-0.007134711
80	0xbd570389	-0.052493606
81	0xbd8a6ecd	-0.06759415
82	0xbc16edf2	-0.009212004
83	0x3e172956	0.14761862
84	0xbd49df73	-0.049285363
85	0xbe14e08f	-0.14538787
86	0xbc07d59d	-0.0082906755
87	0x3d3594c4	0.044331327
88	0xba1c3ca5	-0.00059599645
89	0x3da290de	0.079377875
90	0x3dcfc11e	0.10144256
91	0xbcad0643	-0.02112115
92	0xbdf1c0a2	-0.1180432
93	0x3d2ca24c	0.042146966
94	0x3d9dc0b7	0.07702773
95	0xbc7a418a	-0.015274415
96	0x3cf5024e	0.029908326
97	0xbc9a9c19	-0.018873261
98	0xbd2c390e	-0.0420466
99	0x3d938a27	0.07204085
100	0x3d65a42d	0.056064773
101	0xbba3a30c	-0.004993802
102	0xbd24a99e	-0.040200822
103	0x3b3e7218	0.0029059704
104	0x3c42a95d	0.0118812
105	0x3e10ead8	0.14152086
106	0xbcf3d447	-0.029764308
107	0x3dc90752	0.09815849
108	0x36d705e7	6.4081864e-06
109	0x3d2325d8	0.039831012
110	0x3d214de2	0.039380915
111	0xbccdc713	-0.02511934
112	0x3b48e41e	0.0030653547
113	0xbbc5ed71	-0.006040268
114	0xbca66b84	-0.02031494
115	0xbd077d9d	-0.03307878
116	0xbcade53c	-0.021227472
117	0x3d894b21	0.06703783
118	0x3e014e3d	0.12627502
119	0x3e077804	0.13229376
120	0xbe210380	-0.15723991
121	0xbcf99fb6	-0.030471664
122	0x3d4c4121	0.0498668
123	0xbc279c8d	-0.010230196
124	0x3c653852	0.013990479
125	0x3c2cd7ac	0.010549467
126	0x3d9c2988	0.07625109
127	0x3d8fb18d	0.07016287
128	0xbd431265	-0.047624964
129	0x3c802967	0.015644742
130	0xbc975c4d	-0.01847663
131	0x3d5dbddd	0.054136146
132	0xbda481d7	-0.080325775
133	0xbcbd7a81	-0.023129703
134	0xbe0223c9	-0.12708963
135	0x3d578700	0.05261898
136	0x3cfbdf13	0.030746019
137	0x3c86c52b	0.016451439
138	0x3df2b070	0.11850059
139	0xbda02b6e	-0.078207836
140	0xbd9f7cbc	-0.07787463
141	0x3c8ea180	0.017410994
142	0x3dae191c	0.08500883
143	0xbd81484d	-0.063126184
144	0x3d7d6103	0.061860096
145	0x3dfc0e97	0.1230747
146	0x3de829f2	0.113361254
147	0x3d918c4f	0.0710684
148	0x3ba72502	0.005100847
149	0x3d02db54	0.03194745
150	0xbd3f9d7d	-0.046781052
151	0x3c921035	0.017829994
152	0xbd008e12	-0.03138549
153	0xbd25bcd5	-0.040463287
154	0x3dd93993	0.106066845
155	0xbd239d82	-0.039945133
156	0x3be6a6be	0.00703892
157	0xbd105d1e	-0.035245053
158	0x3c7ae993	0.0153144775
159	0xbdb13a8b	-0.08653744
160	0x3d42a352	0.047519036
161	0x3ddacab4	0.10683194
162	0xbb7f9ca5	-0.003900328
163	0xbdcbc218	-0.0994913
164	0x3c10b9c7	0.008833355
165	0xbb4bdd80	-0.0031107366
166	0xbb8d1375	-0.004305298
167	0xbdb642ef	-0.08899485
168	0xbdbd34ed	-0.092386104
169	0x3d0000ad	0.031250644
170	0xbc053d6f	-0.008132323
171	0x3d758170	0.059937894
172	0xbc79f330	-0.015255734
173	0xbdf2cdbc	-0.11855647
174	0x3e542330	0.20716548
175	0x3d8b8e04	0.06814197
176	0xbdb887ac	-0.09010252
177	0x3dc998bf	0.09843587
178	0x3df5ff19	0.12011547
179	0xbbbe529b	-0.005808187
180	0xbb9d5aa0	-0.004802063
181	0x3db6f16e	0.08932768
182	0x3dc41268	0.09573823
183	0xbc7ba853	-0.015359956
184	0xbd3f3e3f	-0.046690222
185	0x3d9a7aa0	0.0754292
186	0xbd8abd7e	-0.06774424
187	0x3d9d40ca	0.07678373
188	0xbcc23a79	-0.023709523
189	0xbd879269	-0.066197224
190	0xbdaf9c64	-0.08574751
191	0xbdfe4600	-0.12415695
192	0xbcc3e148	-0.023911133
193	0xbc55cef1	-0.013049827
194	0xbd784066	-0.06060829
195	0x3d3f61e9	0.046724234
196	0xbd971a1f	-0.07378029
197	0x3c9f0220	0.019410193
198	0x3b5bf68c	0.0033563701
199	0xbce245f8	-0.027621254
200	0x3d3fea1f	0.046854135
201	0xbd8d5cc9	-0.06902463
202	0xbd4d32a9	-0.05009714
203	0xbddc90af	-0.10769784
204	0xbd922766	-0.07136421
205	0x3cfb09ec	0.03064438
206	0xbd9d86dd	-0.07691739
207	0xba0125fc	-0.00049266196
208	0x3d499235	0.0492117
209	0xbc052844	-0.008127276
210	0x3cba9b97	0.02277927
211	0x3da36059	0.07977361
212	0x3dc8637f	0.097846024
213	0xbda023a4	-0.07819298
214	0x3d6d4bb5	0.057933528
215	0x3dafd6f2	0.085859194
216	0xbc1557a5	-0.009115134
217	0xbc987a8c	-0.018613122
218	0x3c757202	0.014980795
219	0x3d9eee3a	0.07760282
220	0xbd75b8c9	-0.059990678
221	0x3c4ff0ad	0.012691659
222	0x3ca45de1	0.020064296
223	0x3c4fc3c6	0.012680953
224	0xbca79e26	-0.020461153
225	0x3d97ecb1	0.07418192
226	0x3d81bdea	0.06335051
227	0x3caeb69f	0.021327315
228	0xbddf7cf8	-0.10912508
229	0xbd9403ec	-0.072273105
230	0xbdba17c4	-0.09086564
231	0xbdc6f1c9	-0.097140856
232	0xbd99d94e	-0.07512151
233	0x3d22b63f	0.039724585
234	0xbdbcd8dd	-0.09221051
235	0xbddedac9	-0.10881574
236	0x3d1f5f68	0.038909346
237	0xbd56aa9f	-0.05240881
238	0x3c8316fd	0.016002173
239	0xbe071ab2	-0.13193777
240	0x3cb48c3c	0.022039525
241	0xbddb85c2	-0.10718872
242	0x3b10a1aa	0.0022069016
243	0x3cdd4877	0.027012093
244	0x3ce3cd14	0.02780775
245	0x3d711264	0.05885543
246	0x3bf56052	0.007488289
247	0xbcebfe6b	-0.02880784
248	0xbbd1a59c	-0.006397916
249	0xbb20769c	-0.002448476
250	0xbe2efe17	-0.17089115
251	0xbd1b5478	-0.037922353
252	0x3cce2827	0.02516563
253	0xbd51bc33	-0.05120487
254	0x3d59dee6	0.05319109
255	0x3ced4c67	0.028967096

enc2.bottleneck.0.weight f4 [16, 16, 1, 1]
0	0x3e3b172d	0.1827056
1	0x3b32ed91	0.0027302245
2	0xbc27bac1	-0.010237397
3	0x3dc6ee24	0.097133905
4	0x3dd23043	0.102631114
5	0x3d12468e	0.035711817
6	0x3d784191	0.060609404
7	0x3dde885a	0.10865851
8	0xbe8ee58d	-0.27909508
9	0x3d9a7521	0.07541872
10	0x3ce87765	0.028377244
11	0x3edd7221	0.43251136
12	0xbe2d036e	-0.1689584
13	0xbd3385a8	-0.043828636
14	0x3d145ac3	0.03621937
15	0xbe931928	-0.2873013
16	0x3dae9efa	0.08526416
17	0x3d745e1b	0.05966006
18	0xbd87f381	-0.066382416
19	0xbd231944	-0.039819017
20	0x3dbf0f1e	0.09329055
21	0x3e8c9091	0.27454045
22	0xbc8e5e24	-0.017378874
23	0x3ef78c9c	0.48349464
24	0x3d8e4af3	0.06947889
25	0x3df2c15e	0.11853288
26	0x3ddc82f1	0.107671626
27	0x3d6da8cc	0.058022305
28	0xbe26493d	-0.16238876
29	0x3dd76a0c	0.10518274
30	0x3eaa6ca0	0.33286
31	0x3d734651	0.05939323
32	0xbe60ed92	-0.21965626
33	0x3d715971	0.05892319
34	0x3d6ae68d	0.057348777
35	0x3d5a44ce	0.053288274
36	0x3e205391	0.15656878
37	0x3e81dc58	0.2536342
38	0x3c68d5a9	0.014211097
39	0xbd9081b8	-0.07055992
40	0xbd9de3d8	-0.07709473
41	0x3d299f10	0.04141146
42	0x3cf57f9e	0.02996808
43	0xbed718aa	-0.42011005
44	0x3e357c1b	0.17723124
45	0xbe4ce1a2	-0.20007947
46	0xbf287cd7	-0.6581549
47	0xbe598a66	-0.21244201
48	0xbe3f9881	-0.1871052
49	0x3ed718d4	0.4201113
50	0x3e8c8db1	0.27451852
51	0xbe113cb0	-0.14183307
52	0xbbebe1c1	-0.007198543
53	0x3dd8adf6	0.105800554
54	0x3e2608e7	0.16214333
55	0x3d67fd29	0.056637917
56	0xbe093814	-0.13400298
57	0x3e52cfad	0.20587035
58	0xbdd5ebd2	-0.1044537
59	0x3dace13f	0.084414
60	0xbce8ec2c	-0.028432928
61	0xbedf0616	-0.4355933
62	0x3f070245	0.5273784
63	0xbd63a73d	-0.055579413
64	0x3e525e9d	0.20543905
65	0xbd5d858d	-0.054082442
66	0xbe86ce86	-0.2632944
67	0xbae74db7	-0.0017647062
68	0xbca8fea9	-0.020629244
69	0x3cecc244	0.028901227
70	0xbe020a1d	-0.1269917
71	0x3d42f053	0.047592472
72	0xbe25f30c	-0.16205996
73	0x3e0ebeaf	0.13939928
74	0xbeb72c76	-0.35776109
75	0xbe8a021a	-0.26954728
76	0x3d844021	0.06457544
77	0x3de2a5aa	0.11066754
78	0x3e01c27b	0.12671845
79	0xbe4c2f69	-0.1993996
80	0x3e8a80ca	0.27051383
81	0xbe9eff4e	-0.31054157
82	0xbe768ae4	-0.2407642
83	0x3e068155	0.13135274
84	0xbc541503	-0.012944463
85	0x3e6da3e5	0.23207052
86	0xbc9e985f	-0.019359766
87	0x3df70728	0.12061912
88	0x3dd12566	0.10212211
89	0x3e136f2c	0.14397877
90	0xbe26e0a2	-0.16296628
91	0xbe08b390	-0.13349748
92	0xbe205961	-0.15659095
93	0xbcb9e5c4	-0.022692569
94	0x3e66c142	0.2253466
95	0x3e6ae384	0.22938353
96	0x3e3a2a96	0.18180308
97	0xbd678d31	-0.056531135
98	0x3be58330	0.007004164
99	0x3e876681	0.26445392
100	0x3d95f172	0.07321443
101	0xbe8d85e2	-0.27641207
102	0x3c2feedd	0.010738102
103	0x3ce8587b	0.028362503
104	0x3daaabb5	0.08333532
105	0x3dbeb72c	0.09312281
106	0xbdac769d	-0.08421061
107	0xbe089029	-0.13336243
108	0xbdbc2845	-0.09187368
109	0x3eb188af	0.34674594
110	0xbdbe1ac2	-0.092824474
111	0xbd25a022	-0.040435918
112	0xbf0df280	-0.5544815
113	0x3cbbb3b4	0.022912838
114	0x3e8157be	0.25262254
115	0xbdff9bf2	-0.12480916
116	0x3d1696bf	0.036764856
117	0xbe60e3cc	-0.21961898
118	0xbd6a628c	-0.057222888
119	0x3e0d23d8	0.13783205
120	0x3ceef7cb	0.029170891
121	0x3dc87a3f	0.097889416
122	0x3e0c6faf	0.13714479
123	0xbe9915f9	-0.29899576
124	0xbbe05ba5	-0.0068468624
125	0xbda80549	-0.08204133
126	0xbec821e6	-0.39088362
127	0xbe003f4f	-0.1252415
128	0xbe39860a	-0.18117538
129	0x3e74af49	0.23894991
130	0xbdf496f9	-0.11942858
131	0xbdf95b17	-0.12175577
132	0x3c2de227	0.010613001
133	0x3e3e8e3e	0.18608949
134	0xbdb3f1b2	-0.08786334
135	0xbd90f2b9	-0.07077546
136	0xbe35b86b	-0.17746131
137	0x3d2bf74e	0.041983895
138	0x3e4fa3eb	0.20277373
139	0x3e71b983	0.23605923
140	0x3dfdd767	0.123946
141	0x3e6b7ef5	0.22997649
142	0x3e2866cf	0.16445468
143	0x3e4011fc	0.1875686
144	0x3d8e136f	0.069373004
145	0xbdc302c8	-0.09522015
146	0xbe342ba6	-0.17594776
147	0x3e3e07af	0.18557619
148	0x3d92235a	0.07135649
149	0xbe229cb3	-0.15880089
150	0x3c872016	0.016494792
151	0x3e36463b	0.17800228
152	0x3ed117b6	0.40838403
153	0xbca4f8ba	-0.020138133
154	0x3dfe21fc	0.12408826
155	0x3de83c7f	0.11339664
156	0xbe839932	-0.25702816
157	0xbae10224	-0.0017166776
158	0xbc67ff74	-0.014160026
159	0xbde3f98a	-0.1113158
160	0xbe29e85c	-0.16592544
161	0x3e4ee0b9	0.20202912
162	0xbe234dd6	-0.15947661
163	0x3da27cf6	0.07933991
164	0xbe842759	-0.2581127
165	0xba7f35ef	-0.0009735515
166	0xbe1993a1	-0.14997722
167	0x3b19384a	0.0023379498
168	0x3c415507	0.011800057
169	0xbe0ab7fb	-0.13546745
170	0x3ee94f34	0.4556824
171	0x3c97c6f7	0.018527491
172	0x3d4c5ecb	0.04989509
173	0xbd50f076	-0.05101057
174	0xbe9a89dc	-0.30183303
175	0xbc62b3e2	-0.013836833
176	0xbe599251	-0.21247222
177	0x3dcc21be	0.09967373
178	0xbd1e39e4	-0.038629428
179	0xbdec4e45	-0.11538366
180	0x3e0b76b0	0.13619494
181	0xbe8290ac	-0.25501
182	0xbe648d90	-0.22319627
183	0xbca6b05b	-0.020347765
184	0x3bc9dcc3	0.00616035
185	0x3de812f2	0.113317385
186	0x3e5c602d	0.21521063
187	0x3ed49105	0.4151689
188	0xbe7add52	-0.2449849
189	0xbe6e38c7	-0.23263846
190	0xbe7f161f	-0.24910782
191	0xbd2deb7e	-0.04246091
192	0x3e8bcaa0	0.27303028
193	0x3e7c9813	0.24667387
194	0xbd478bc5	-0.04871728
195	0xbd4d953b	-0.050191145
196	0xbe410544	-0.18849665
197	0x3ca5ed7c	0.020254843
198	0xbe822742	-0.25420576
199	0x3dadab21	0.08479906
200	0xbe95c69d	-0.29253092
201	0xbd5b372c	-0.053519413
202	0x3e4de849	0.20108141
203	0x3dff860c	0.12476739
204	0x3d427982	0.04747916
205	0xbd363246	-0.04448154
206	0xbcf19827	-0.029491497
207	0xbe920422	-0.28518778
208	0x3e97b692	0.29631478
209	0xbdc958dd	-0.098314025
210	0xbd249809	-0.040184055
211	0x3e27b71b	0.16378443
212	0xbcfa0a72	-0.030522559
213	0x3e70db61	0.23521186
214	0xbe27fd7b	-0.16405289
215	0x3e354554	0.17702228
216	0xbe948c49	-0.2901328
217	0x3e1d06d8	0.15334642
218	0x3dfdb601	0.1238823
219	0x3eedb71a	0.46428758
220	0x3e8dbc59	0.2768276
221	0x3e6af5a8	0.22945273
222	0xbe426f76	-0.18987831
223	0x3d82b4e6	0.0638216
224	0xbdba3649	-0.09092385
225	0x3e3c13e0	0.18366957
226	0x3dcb936c	0.09940228
227	0xbde72f88	-0.11288363
228	0xbd8d5d4a	-0.06902559
229	0x3e221d41	0.15831472
230	0xbe26ac9b	-0.16276781
231	0xbd200d35	-0.039075095
232	0x3b8fcfc0	0.0043887794
233	0xbe509747	-0.20370208
234	0x3e24c853	0.16092043
235	0x3e68bc76	0.22728142
236	0xbeaae202	-0.33375555
237	0x3e07cb6b	0.13261192
238	0x3de105ba	0.109874204
239	0x3e1f88a2	0.15579465
240	0x3dd75882	0.105149284
241	0x3d5e6045	0.05429103
242	0xbcb2495f	-0.021763502
243	0x3eddff4e	0.43358845
244	0x3e891316	0.26772374
245	0xbe59d60e	-0.21273062
246	0xbd01865a	-0.03162227
247	0xbe12fc1b	-0.14353983
248	0x3e13fd7e	0.14452168
249	0xbce90315	-0.028443852
250	0x3e7f3895	0.24923928
251	0xbd69573d	-0.056967963
252	0xbe5a304d	-0.21307488
253	0xbe17338e	-0.1476576
254	0xbe0cf77f	-0.13766287
255	0x3daf5c6a	0.085625485

enc2.bottleneck.1.weight f4 [16]
0	0x3f9f51ea	1.2446873
1	0x3fa21ae0	1.2664452
2	0x3f9357c2	1.1511157
3	0x3fb7a50e	1.4347246
4	0x3fae84be	1.363426
5	0x3fc35b55	1.5262247
6	0x3f5e3804	0.86804223
7	0x3faa0af5	1.3284594
8	0x3f9b5b2b	1.2137197
9	0x3f831d96	1.0243404
10	0x3f967889	1.1755534
11	0x3f971938	1.1804571
12	0x3f6fc723	0.93663234
13	0x3f9d77e4	1.2302213
14	0x3f852bb7	1.0403966
15	0x3f88e0ec	1.0693641

enc2.bottleneck.1.bias f4 [16]
0	0x3e0ff16d	0.1405694
1	0xbc91397e	-0.01772761
2	0x3e9ce72f	0.3064513
3	0xbd477b56	-0.048701607
4	0x3e3cb2f8	0.18427646
5	0xbe0ba1ab	-0.1363589
6	0xbe5bc209	-0.21460737
7	0xbdb354ae	-0.08756386
8	0x3e6e4881	0.23269846
9	0x3d99ed50	0.07515967
10	0x3e92ecf0	0.28696394
11	0x3e7128bb	0.23550694
12	0xbdadf867	-0.084946446
13	0xbd0041de	-0.031312816
14	0x3ee55f41	0.44799235
15	0xbebe95bf	-0.37223622

enc2.bottleneck.1.running_mean f4 [16]
0	0x3e2ab327	0.16669904
1	0x3ce90192	0.028443132
2	0x3d11aa57	0.03556284
3	0x3aff299b	0.0019467355
4	0x3d33a70c	0.04386048
5	0xbda3c41e	-0.07996391
6	0x3c5ddd8b	0.0135415895
7	0x3ca95448	0.020670071
8	0xbdbfc5b1	-0.093638785
9	0x3d5d2950	0.053994477
10	0xbd20cac3	-0.03925587
11	0x3d70b4e0	0.058766246
12	0x3e0e02af	0.13868211
13	0xb9b3937d	-0.00034251428
14	0x3d3e9e3e	0.04653763
15	0x3bdb6f4d	0.0066966177

enc2.bottleneck.1.running_var f4 [16]
0	0x3ca0dec7	0.019637479
1	0x3b21c62b	0.0024684768
2	0x3b845008	0.004037861
3	0x3b88c737	0.004174139
4	0x3b5fa2f6	0.0034124232
5	0x3b4c5c28	0.003118286
6	0x3a8d5c5f	0.0010784975
7	0x3b4aa723	0.0030922375
8	0x3b09e208	0.0021039266
9	0x3b650bce	0.0034949663
10	0x3ab9b697	0.0014168796
11	0x3bf1e318	0.007381808
12	0x3c267c1e	0.010161428
13	0x3b053bf0	0.0020329915
14	0x3b5d5f67	0.0033778788
15	0x3b2479b0	0.0025096945

enc2.fuse.est.mlp.0.weight f4 [16, 2]
0	0x3eb397ac	0.35076654
1	0x3d124354	0.03570874
2	0x3d8ed047	0.069733195
3	0x3ea81a10	0.32832384
4	0xbf12516e	-0.571555
5	0xbee24527	-0.44193384
6	0x3ceb3a6a	0.028714377
7	0xbf1aaa6f	-0.6041631
8	0xbe32084a	-0.17385975
9	0xbe4dcade	-0.20096919
10	0xbea24e0c	-0.3170017
11	0x3bd52db4	0.0065056924
12	0xbd2acd40	-0.041699648
13	0xbe1733dc	-0.14765877
14	0x3e2de2d8	0.16981065
15	0x3e791a14	0.24326354
16	0xbf201b6f	-0.6254186
17	0x3f03ece3	0.51533335
18	0xbd28f530	-0.041249454
19	0x39934000	0.0002808571
20	0xbebdfff7	-0.37109348
21	0xbf1aa2ea	-0.6040484
22	0x3ec0a0fa	0.37622815
23	0xbeb6c541	-0.35697368
24	0xbf527c4b	-0.82220906
25	0x3cba6d06	0.022757065
26	0xbf2a435d	-0.6650904
27	0xbf0d2359	-0.5513206
28	0x3ecd4739	0.400934
29	0x3cdedd6b	0.02720519
30	0x3c3c94c0	0.011510074
31	0xbf0859b6	-0.5326189

enc2.fuse.est.mlp.0.bias f4 [16]
0	0x3e99be86	0.3002817
1	0x3ec306c9	0.38091114
2	0x3e5bae57	0.21453224
3	0x3e3712ea	0.17878309
4	0x3f142946	0.5787548
5	0x3f253f36	0.6454958
6	0xbdb89220	-0.09012246
7	0x3d8057d9	0.062667556
8	0xbecbe976	-0.39826554
9	0xbf1a7243	-0.603306
10	0xbf2cc9ac	-0.67495227
11	0xbf2e742e	-0.68146026
12	0x3e6658c4	0.22494799
13	0x3ea8c109	0.32959774
14	0x3e327222	0.1742635
15	0xbdd05570	-0.10172546

enc2.fuse.est.mlp.2.weight f4 [1, 16]
0	0x3e50579a	0.20345917
1	0x3d8a70aa	0.0675977
2	0x3e146f5c	0.14495605
3	0x3d4d19c5	0.050073404
4	0xbe11ce4c	-0.14238852
5	0x3e730da5	0.23735674
6	0xbe464642	-0.19362739
7	0xbc8238d3	-0.015896237
8	0x3e73e41c	0.23817486
9	0xbe4768c0	-0.19473553
10	0xbcfe40f0	-0.031036824
11	0xbc4c8b80	-0.012484431
12	0x3efd8938	0.49518752
13	0x3f0b7850	0.5448046
14	0x3e064d7d	0.13115497
15	0xbd36d1f0	-0.044633806

enc2.eca.conv.weight f4 [1, 1, 5]
0	0x3f3a0f91	0.7268
1	0x3ea73c6f	0.32663295
2	0x3e55729c	0.20844501
3	0xbe053ca5	-0.13011415
4	0x3eeab33d	0.45839873

enc2.ca.conv1.weight f4 [8, 16, 1, 1]
0	0xbd283f37	-0.04107591
1	0xbdf0b2c6	-0.11752848
2	0xbe486998	-0.19571531
3	0xbe2c92b3	-0.16852836
4	0xbd93e8f8	-0.0722217
5	0xbcfbeadb	-0.030751636
6	0xbdf2a01a	-0.11846943
7	0xbc9f4117	-0.019440217
8	0x3efd10b9	0.4942682
9	0x3e514c5c	0.20439285
10	0xbb8fd1c9	-0.004389022
11	0xbeaf648a	-0.34256393
12	0x398deb32	0.0002706885
13	0x3d6c2941	0.05765653
14	0x3d8e548c	0.0694972
15	0x3e7124c3	0.2354918
16	0x3e91f3e7	0.28506395
17	0xbdbf2887	-0.09333902
18	0x3da97c37	0.08275645
19	0x3ef20ada	0.47273904
20	0xbc60d95c	-0.0137236975
21	0x3cb2159c	0.02173882
22	0xbd7779a8	-0.060418755
23	0x3db67383	0.08908751
24	0xbdc447a7	-0.09583979
25	0xbd577e8c	-0.05261092
26	0x3d48997a	0.04897449
27	0xbd9a9367	-0.07547646
28	0xbda62c12	-0.081138745
29	0xbeae1963	-0.34003744
30	0x3e84a359	0.25905874
31	0xbe2a2852	-0.16616943
32	0xbd300297	-0.04297122
33	0xbdda270e	-0.1065198
34	0xbe270386	-0.16309938
35	0xbe4ba344	-0.198865
36	0xbda8bb52	-0.082388535
37	0x3c74d52b	0.014943401
38	0x3d4a7d36	0.049435817
39	0xbee54c0a	-0.44784576
40	0xbe6e6ad2	-0.23282936
41	0xbe5ec73d	-0.21755691
42	0xbcae13d3	-0.021249687
43	0xbe39b808	-0.18136609
44	0x3ddff0c8	0.10934597
45	0x3e57e47c	0.21083254
46	0x3eaa3509	0.33243588
47	0x3d1d159c	0.038350686
48	0x3d4409e4	0.047860995
49	0x3d10ea22	0.035379536
50	0x3e5fc7db	0.21853583
51	0x3db48cf5	0.08815948
52	0xbe37c497	-0.17946087
53	0xbe456b44	-0.192792
54	0x3e2f6303	0.17127614
55	0xbe1728c8	-0.1476165
56	0x3ebb71f8	0.3661039
57	0xbe2c91b7	-0.16852461
58	0xbd664a86	-0.056223415
59	0xbddfdaf5	-0.109304346
60	0xbdd78a29	-0.10524399
61	0x3e00fdae	0.12596771
62	0x3dcd81f2	0.10034551
63	0xbb92efdb	-0.0044841594
64	0xbd89cc4b	-0.06728419
65	0xbe1686f2	-0.14699915
66	0xbd834dea	-0.06411345
67	0xbe8d5e9f	-0.27611253
68	0x3e6acf0a	0.22930542
69	0x3e19391f	0.14963196
70	0xbe21b6c9	-0.15792383
71	0xbebb00ce	-0.3652405
72	0xbc3a30d4	-0.011364181
73	0xbd040550	-0.03223163
74	0x3ec0d19d	0.37659922
75	0x3e71c390	0.23609757
76	0xbd90ef59	-0.07076902
77	0xbd13a61c	-0.036047086
78	0x3e9343bb	0.28762612
79	0xbe0a2cd5	-0.13493665
80	0x3da7fbd3	0.082023285
81	0xbe5e37c0	-0.21700954
82	0xbe5b596f	-0.21420835
83	0x3f057f9c	0.5214784
84	0x3dcf49f9	0.10121531
85	0x3d3ddd3d	0.046353567
86	0xbe0372b4	-0.12836725
87	0xb88609e2	-6.391459e-05
88	0x3c43ce87	0.011951095
89	0xbe1ddc34	-0.15416032
90	0xbc6cb57e	-0.014447568
91	0xbe133c57	-0.14378487
92	0x3d9fb31a	0.07797833
93	0xbe1482fd	-0.14503093
94	0x3e029053	0.12750368
95	0x3e507402	0.20356753
96	0xbdf5c783	-0.120009445
97	0xbe3a700a	-0.18206802
98	0x3df972ed	0.121801235
99	0xbd9878a8	-0.07444888
100	0x3e5c12a6	0.21491489
101	0xbea37a83	-0.31929407
102	0x3e3e5a2b	0.18589084
103	0xbea173e2	-0.31533724
104	0xbdd3fbd6	-0.10350768
105	0x3e11c568	0.14235461
106	0x3c1d1e5a	0.009589756
107	0xbd1f1685	-0.038839836
108	0x3b3806dd	0.0028080263
109	0xbdd49293	-0.10379519
110	0xbd88be52	-0.06676926
111	0xbb8a8797	-0.0042275894
112	0xbe53413c	-0.20630354
113	0x3b80d352	0.0039314413
114	0xbe8b3cf7	-0.2719495
115	0xbe0402bf	-0.12891673
116	0xbf0260c2	-0.5092889
117	0x3d2c0569	0.041997347
118	0xbe4e0316	-0.20118365
119	0xbb02c2c1	-0.0019952508
120	0xbd07d46e	-0.033161573
121	0xbe4768b4	-0.19473535
122	0xbe056c20	-0.13029528
123	0xbd6203af	-0.055179294
124	0x3b976653	0.0046203523
125	0x3e25c8d1	0.16189887
126	0xbe8d6858	-0.2761867
127	0xbdafe2f3	-0.08588209

enc2.ca.bn1.weight f4 [8]
0	0x3f8a21b9	1.0791541
1	0x3f8b4b2d	1.0882317
2	0x3f8afc20	1.0858192
3	0x3f97f963	1.1872982
4	0x3f89eb46	1.0774925
5	0x3fc24795	1.5178095
6	0x3f893f2e	1.0722406
7	0x3fbaa50a	1.4581616

enc2.ca.bn1.bias f4 [8]
0	0x3e07ccfb	0.13261788
1	0xbda64b00	-0.08119774
2	0xbd8589fc	-0.06520459
3	0x3ed089a8	0.40730023
4	0xbded3810	-0.11582959
5	0x3e975fa0	0.29565144
6	0x3d3d08de	0.046151035
7	0x3ef9ceb1	0.48790506

enc2.ca.bn1.running_mean f4 [8]
0	0xbd3deabe	-0.046366446
1	0x3db723c0	0.08942366
2	0xbdcb6d64	-0.09932974
3	0x3c5c3f78	0.0134428665
4	0x3ce72455	0.028215567
5	0x3cfd6b91	0.03093508
6	0xbd5206b1	-0.051275913
7	0xbe4c1d25	-0.19932993

enc2.ca.bn1.running_var f4 [8]
0	0x3bbd76c7	0.0057819816
1	0x3bdcb0b1	0.0067349304
2	0x3c20f814	0.009824771
3	0x3b009f3e	0.0019626166
4	0x3c57a5eb	0.0131621165
5	0x3c1c039e	0.009522347
6	0x3b8c070b	0.0042733005
7	0x3d2b1bc0	0.04177451
